ir_version: 6
producer_name: "pytorch"
producer_version: "1.7"
model_version: 0
graph {
  name: "torch-jit-export"
  node {
    input: "input"
    output: "183"
    name: "Shape_0"
    op_type: "Shape"
  }
  node {
    output: "184"
    name: "Constant_1"
    op_type: "Constant"
    attribute {
      name: "value"
      t {
        data_type: 7
      }
      type: TENSOR
    }
  }
  node {
    input: "183"
    input: "184"
    output: "185"
    name: "Gather_2"
    op_type: "Gather"
    attribute {
      name: "axis"
      i: 0
      type: INT
    }
  }
  node {
    input: "613"
    output: "195"
    name: "ConstantOfShape_3"
    op_type: "ConstantOfShape"
    attribute {
      name: "value"
      t {
        dims: 1
        data_type: 7
        raw_data: "\000\000\000\000\000\000\000\000"
      }
      type: TENSOR
    }
  }
  node {
    input: "614"
    input: "195"
    output: "196"
    name: "Concat_4"
    op_type: "Concat"
    attribute {
      name: "axis"
      i: 0
      type: INT
    }
  }
  node {
    output: "197"
    name: "Constant_5"
    op_type: "Constant"
    attribute {
      name: "value"
      t {
        dims: 2
        data_type: 7
      }
      type: TENSOR
    }
  }
  node {
    input: "196"
    input: "197"
    output: "198"
    name: "Reshape_6"
    op_type: "Reshape"
  }
  node {
    output: "199"
    name: "Constant_7"
    op_type: "Constant"
    attribute {
      name: "value"
      t {
        dims: 1
        data_type: 7
      }
      type: TENSOR
    }
  }
  node {
    output: "200"
    name: "Constant_8"
    op_type: "Constant"
    attribute {
      name: "value"
      t {
        dims: 1
        data_type: 7
      }
      type: TENSOR
    }
  }
  node {
    output: "201"
    name: "Constant_9"
    op_type: "Constant"
    attribute {
      name: "value"
      t {
        dims: 1
        data_type: 7
      }
      type: TENSOR
    }
  }
  node {
    output: "202"
    name: "Constant_10"
    op_type: "Constant"
    attribute {
      name: "value"
      t {
        dims: 1
        data_type: 7
      }
      type: TENSOR
    }
  }
  node {
    input: "198"
    input: "200"
    input: "201"
    input: "199"
    input: "202"
    output: "203"
    name: "Slice_11"
    op_type: "Slice"
  }
  node {
    input: "203"
    output: "204"
    name: "Transpose_12"
    op_type: "Transpose"
    attribute {
      name: "perm"
      ints: 1
      ints: 0
      type: INTS
    }
  }
  node {
    output: "205"
    name: "Constant_13"
    op_type: "Constant"
    attribute {
      name: "value"
      t {
        dims: 1
        data_type: 7
      }
      type: TENSOR
    }
  }
  node {
    input: "204"
    input: "205"
    output: "206"
    name: "Reshape_14"
    op_type: "Reshape"
  }
  node {
    input: "206"
    output: "207"
    name: "Cast_15"
    op_type: "Cast"
    attribute {
      name: "to"
      i: 7
      type: INT
    }
  }
  node {
    output: "208"
    name: "Constant_16"
    op_type: "Constant"
    attribute {
      name: "value"
      t {
        data_type: 1
      }
      type: TENSOR
    }
  }
  node {
    input: "input"
    input: "207"
    input: "208"
    output: "209"
    name: "Pad_17"
    op_type: "Pad"
    attribute {
      name: "mode"
      s: "constant"
      type: STRING
    }
  }
  node {
    input: "209"
    input: "backbone1.0.weight"
    input: "backbone1.0.bias"
    output: "210"
    name: "Conv_18"
    op_type: "Conv"
    attribute {
      name: "dilations"
      ints: 1
      ints: 1
      type: INTS
    }
    attribute {
      name: "group"
      i: 1
      type: INT
    }
    attribute {
      name: "kernel_shape"
      ints: 3
      ints: 3
      type: INTS
    }
    attribute {
      name: "pads"
      ints: 0
      ints: 0
      ints: 0
      ints: 0
      type: INTS
    }
    attribute {
      name: "strides"
      ints: 2
      ints: 2
      type: INTS
    }
  }
  node {
    input: "210"
    output: "211"
    name: "Relu_19"
    op_type: "Relu"
  }
  node {
    input: "211"
    input: "backbone1.2.convs.0.weight"
    input: "backbone1.2.convs.0.bias"
    output: "212"
    name: "Conv_20"
    op_type: "Conv"
    attribute {
      name: "dilations"
      ints: 1
      ints: 1
      type: INTS
    }
    attribute {
      name: "group"
      i: 32
      type: INT
    }
    attribute {
      name: "kernel_shape"
      ints: 3
      ints: 3
      type: INTS
    }
    attribute {
      name: "pads"
      ints: 1
      ints: 1
      ints: 1
      ints: 1
      type: INTS
    }
    attribute {
      name: "strides"
      ints: 1
      ints: 1
      type: INTS
    }
  }
  node {
    input: "212"
    input: "backbone1.2.convs.1.weight"
    input: "backbone1.2.convs.1.bias"
    output: "213"
    name: "Conv_21"
    op_type: "Conv"
    attribute {
      name: "dilations"
      ints: 1
      ints: 1
      type: INTS
    }
    attribute {
      name: "group"
      i: 1
      type: INT
    }
    attribute {
      name: "kernel_shape"
      ints: 1
      ints: 1
      type: INTS
    }
    attribute {
      name: "pads"
      ints: 0
      ints: 0
      ints: 0
      ints: 0
      type: INTS
    }
    attribute {
      name: "strides"
      ints: 1
      ints: 1
      type: INTS
    }
  }
  node {
    input: "213"
    input: "211"
    output: "214"
    name: "Add_22"
    op_type: "Add"
  }
  node {
    input: "214"
    output: "215"
    name: "Relu_23"
    op_type: "Relu"
  }
  node {
    input: "215"
    input: "backbone1.3.convs.0.weight"
    input: "backbone1.3.convs.0.bias"
    output: "216"
    name: "Conv_24"
    op_type: "Conv"
    attribute {
      name: "dilations"
      ints: 1
      ints: 1
      type: INTS
    }
    attribute {
      name: "group"
      i: 32
      type: INT
    }
    attribute {
      name: "kernel_shape"
      ints: 3
      ints: 3
      type: INTS
    }
    attribute {
      name: "pads"
      ints: 1
      ints: 1
      ints: 1
      ints: 1
      type: INTS
    }
    attribute {
      name: "strides"
      ints: 1
      ints: 1
      type: INTS
    }
  }
  node {
    input: "216"
    input: "backbone1.3.convs.1.weight"
    input: "backbone1.3.convs.1.bias"
    output: "217"
    name: "Conv_25"
    op_type: "Conv"
    attribute {
      name: "dilations"
      ints: 1
      ints: 1
      type: INTS
    }
    attribute {
      name: "group"
      i: 1
      type: INT
    }
    attribute {
      name: "kernel_shape"
      ints: 1
      ints: 1
      type: INTS
    }
    attribute {
      name: "pads"
      ints: 0
      ints: 0
      ints: 0
      ints: 0
      type: INTS
    }
    attribute {
      name: "strides"
      ints: 1
      ints: 1
      type: INTS
    }
  }
  node {
    input: "217"
    input: "215"
    output: "218"
    name: "Add_26"
    op_type: "Add"
  }
  node {
    input: "218"
    output: "219"
    name: "Relu_27"
    op_type: "Relu"
  }
  node {
    input: "219"
    input: "backbone1.4.convs.0.weight"
    input: "backbone1.4.convs.0.bias"
    output: "220"
    name: "Conv_28"
    op_type: "Conv"
    attribute {
      name: "dilations"
      ints: 1
      ints: 1
      type: INTS
    }
    attribute {
      name: "group"
      i: 32
      type: INT
    }
    attribute {
      name: "kernel_shape"
      ints: 3
      ints: 3
      type: INTS
    }
    attribute {
      name: "pads"
      ints: 1
      ints: 1
      ints: 1
      ints: 1
      type: INTS
    }
    attribute {
      name: "strides"
      ints: 1
      ints: 1
      type: INTS
    }
  }
  node {
    input: "220"
    input: "backbone1.4.convs.1.weight"
    input: "backbone1.4.convs.1.bias"
    output: "221"
    name: "Conv_29"
    op_type: "Conv"
    attribute {
      name: "dilations"
      ints: 1
      ints: 1
      type: INTS
    }
    attribute {
      name: "group"
      i: 1
      type: INT
    }
    attribute {
      name: "kernel_shape"
      ints: 1
      ints: 1
      type: INTS
    }
    attribute {
      name: "pads"
      ints: 0
      ints: 0
      ints: 0
      ints: 0
      type: INTS
    }
    attribute {
      name: "strides"
      ints: 1
      ints: 1
      type: INTS
    }
  }
  node {
    input: "221"
    input: "219"
    output: "222"
    name: "Add_30"
    op_type: "Add"
  }
  node {
    input: "222"
    output: "223"
    name: "Relu_31"
    op_type: "Relu"
  }
  node {
    input: "223"
    input: "backbone1.5.convs.0.weight"
    input: "backbone1.5.convs.0.bias"
    output: "224"
    name: "Conv_32"
    op_type: "Conv"
    attribute {
      name: "dilations"
      ints: 1
      ints: 1
      type: INTS
    }
    attribute {
      name: "group"
      i: 32
      type: INT
    }
    attribute {
      name: "kernel_shape"
      ints: 3
      ints: 3
      type: INTS
    }
    attribute {
      name: "pads"
      ints: 1
      ints: 1
      ints: 1
      ints: 1
      type: INTS
    }
    attribute {
      name: "strides"
      ints: 1
      ints: 1
      type: INTS
    }
  }
  node {
    input: "224"
    input: "backbone1.5.convs.1.weight"
    input: "backbone1.5.convs.1.bias"
    output: "225"
    name: "Conv_33"
    op_type: "Conv"
    attribute {
      name: "dilations"
      ints: 1
      ints: 1
      type: INTS
    }
    attribute {
      name: "group"
      i: 1
      type: INT
    }
    attribute {
      name: "kernel_shape"
      ints: 1
      ints: 1
      type: INTS
    }
    attribute {
      name: "pads"
      ints: 0
      ints: 0
      ints: 0
      ints: 0
      type: INTS
    }
    attribute {
      name: "strides"
      ints: 1
      ints: 1
      type: INTS
    }
  }
  node {
    input: "225"
    input: "223"
    output: "226"
    name: "Add_34"
    op_type: "Add"
  }
  node {
    input: "226"
    output: "227"
    name: "Relu_35"
    op_type: "Relu"
  }
  node {
    input: "227"
    input: "backbone1.6.convs.0.weight"
    input: "backbone1.6.convs.0.bias"
    output: "228"
    name: "Conv_36"
    op_type: "Conv"
    attribute {
      name: "dilations"
      ints: 1
      ints: 1
      type: INTS
    }
    attribute {
      name: "group"
      i: 32
      type: INT
    }
    attribute {
      name: "kernel_shape"
      ints: 3
      ints: 3
      type: INTS
    }
    attribute {
      name: "pads"
      ints: 1
      ints: 1
      ints: 1
      ints: 1
      type: INTS
    }
    attribute {
      name: "strides"
      ints: 1
      ints: 1
      type: INTS
    }
  }
  node {
    input: "228"
    input: "backbone1.6.convs.1.weight"
    input: "backbone1.6.convs.1.bias"
    output: "229"
    name: "Conv_37"
    op_type: "Conv"
    attribute {
      name: "dilations"
      ints: 1
      ints: 1
      type: INTS
    }
    attribute {
      name: "group"
      i: 1
      type: INT
    }
    attribute {
      name: "kernel_shape"
      ints: 1
      ints: 1
      type: INTS
    }
    attribute {
      name: "pads"
      ints: 0
      ints: 0
      ints: 0
      ints: 0
      type: INTS
    }
    attribute {
      name: "strides"
      ints: 1
      ints: 1
      type: INTS
    }
  }
  node {
    input: "229"
    input: "227"
    output: "230"
    name: "Add_38"
    op_type: "Add"
  }
  node {
    input: "230"
    output: "231"
    name: "Relu_39"
    op_type: "Relu"
  }
  node {
    input: "231"
    input: "backbone1.7.convs.0.weight"
    input: "backbone1.7.convs.0.bias"
    output: "232"
    name: "Conv_40"
    op_type: "Conv"
    attribute {
      name: "dilations"
      ints: 1
      ints: 1
      type: INTS
    }
    attribute {
      name: "group"
      i: 32
      type: INT
    }
    attribute {
      name: "kernel_shape"
      ints: 3
      ints: 3
      type: INTS
    }
    attribute {
      name: "pads"
      ints: 1
      ints: 1
      ints: 1
      ints: 1
      type: INTS
    }
    attribute {
      name: "strides"
      ints: 1
      ints: 1
      type: INTS
    }
  }
  node {
    input: "232"
    input: "backbone1.7.convs.1.weight"
    input: "backbone1.7.convs.1.bias"
    output: "233"
    name: "Conv_41"
    op_type: "Conv"
    attribute {
      name: "dilations"
      ints: 1
      ints: 1
      type: INTS
    }
    attribute {
      name: "group"
      i: 1
      type: INT
    }
    attribute {
      name: "kernel_shape"
      ints: 1
      ints: 1
      type: INTS
    }
    attribute {
      name: "pads"
      ints: 0
      ints: 0
      ints: 0
      ints: 0
      type: INTS
    }
    attribute {
      name: "strides"
      ints: 1
      ints: 1
      type: INTS
    }
  }
  node {
    input: "233"
    input: "231"
    output: "234"
    name: "Add_42"
    op_type: "Add"
  }
  node {
    input: "234"
    output: "235"
    name: "Relu_43"
    op_type: "Relu"
  }
  node {
    input: "235"
    input: "backbone1.8.convs.0.weight"
    input: "backbone1.8.convs.0.bias"
    output: "236"
    name: "Conv_44"
    op_type: "Conv"
    attribute {
      name: "dilations"
      ints: 1
      ints: 1
      type: INTS
    }
    attribute {
      name: "group"
      i: 32
      type: INT
    }
    attribute {
      name: "kernel_shape"
      ints: 3
      ints: 3
      type: INTS
    }
    attribute {
      name: "pads"
      ints: 1
      ints: 1
      ints: 1
      ints: 1
      type: INTS
    }
    attribute {
      name: "strides"
      ints: 1
      ints: 1
      type: INTS
    }
  }
  node {
    input: "236"
    input: "backbone1.8.convs.1.weight"
    input: "backbone1.8.convs.1.bias"
    output: "237"
    name: "Conv_45"
    op_type: "Conv"
    attribute {
      name: "dilations"
      ints: 1
      ints: 1
      type: INTS
    }
    attribute {
      name: "group"
      i: 1
      type: INT
    }
    attribute {
      name: "kernel_shape"
      ints: 1
      ints: 1
      type: INTS
    }
    attribute {
      name: "pads"
      ints: 0
      ints: 0
      ints: 0
      ints: 0
      type: INTS
    }
    attribute {
      name: "strides"
      ints: 1
      ints: 1
      type: INTS
    }
  }
  node {
    input: "237"
    input: "235"
    output: "238"
    name: "Add_46"
    op_type: "Add"
  }
  node {
    input: "238"
    output: "239"
    name: "Relu_47"
    op_type: "Relu"
  }
  node {
    input: "618"
    output: "249"
    name: "ConstantOfShape_48"
    op_type: "ConstantOfShape"
    attribute {
      name: "value"
      t {
        dims: 1
        data_type: 7
        raw_data: "\000\000\000\000\000\000\000\000"
      }
      type: TENSOR
    }
  }
  node {
    input: "619"
    input: "249"
    output: "250"
    name: "Concat_49"
    op_type: "Concat"
    attribute {
      name: "axis"
      i: 0
      type: INT
    }
  }
  node {
    output: "251"
    name: "Constant_50"
    op_type: "Constant"
    attribute {
      name: "value"
      t {
        dims: 2
        data_type: 7
      }
      type: TENSOR
    }
  }
  node {
    input: "250"
    input: "251"
    output: "252"
    name: "Reshape_51"
    op_type: "Reshape"
  }
  node {
    output: "253"
    name: "Constant_52"
    op_type: "Constant"
    attribute {
      name: "value"
      t {
        dims: 1
        data_type: 7
      }
      type: TENSOR
    }
  }
  node {
    output: "254"
    name: "Constant_53"
    op_type: "Constant"
    attribute {
      name: "value"
      t {
        dims: 1
        data_type: 7
      }
      type: TENSOR
    }
  }
  node {
    output: "255"
    name: "Constant_54"
    op_type: "Constant"
    attribute {
      name: "value"
      t {
        dims: 1
        data_type: 7
      }
      type: TENSOR
    }
  }
  node {
    output: "256"
    name: "Constant_55"
    op_type: "Constant"
    attribute {
      name: "value"
      t {
        dims: 1
        data_type: 7
      }
      type: TENSOR
    }
  }
  node {
    input: "252"
    input: "254"
    input: "255"
    input: "253"
    input: "256"
    output: "257"
    name: "Slice_56"
    op_type: "Slice"
  }
  node {
    input: "257"
    output: "258"
    name: "Transpose_57"
    op_type: "Transpose"
    attribute {
      name: "perm"
      ints: 1
      ints: 0
      type: INTS
    }
  }
  node {
    output: "259"
    name: "Constant_58"
    op_type: "Constant"
    attribute {
      name: "value"
      t {
        dims: 1
        data_type: 7
      }
      type: TENSOR
    }
  }
  node {
    input: "258"
    input: "259"
    output: "260"
    name: "Reshape_59"
    op_type: "Reshape"
  }
  node {
    input: "260"
    output: "261"
    name: "Cast_60"
    op_type: "Cast"
    attribute {
      name: "to"
      i: 7
      type: INT
    }
  }
  node {
    output: "262"
    name: "Constant_61"
    op_type: "Constant"
    attribute {
      name: "value"
      t {
        data_type: 1
      }
      type: TENSOR
    }
  }
  node {
    input: "239"
    input: "261"
    input: "262"
    output: "263"
    name: "Pad_62"
    op_type: "Pad"
    attribute {
      name: "mode"
      s: "constant"
      type: STRING
    }
  }
  node {
    input: "239"
    output: "264"
    name: "MaxPool_63"
    op_type: "MaxPool"
    attribute {
      name: "ceil_mode"
      i: 0
      type: INT
    }
    attribute {
      name: "kernel_shape"
      ints: 2
      ints: 2
      type: INTS
    }
    attribute {
      name: "pads"
      ints: 0
      ints: 0
      ints: 0
      ints: 0
      type: INTS
    }
    attribute {
      name: "strides"
      ints: 2
      ints: 2
      type: INTS
    }
  }
  node {
    input: "623"
    output: "274"
    name: "ConstantOfShape_64"
    op_type: "ConstantOfShape"
    attribute {
      name: "value"
      t {
        dims: 1
        data_type: 7
        raw_data: "\000\000\000\000\000\000\000\000"
      }
      type: TENSOR
    }
  }
  node {
    input: "624"
    input: "274"
    output: "275"
    name: "Concat_65"
    op_type: "Concat"
    attribute {
      name: "axis"
      i: 0
      type: INT
    }
  }
  node {
    output: "276"
    name: "Constant_66"
    op_type: "Constant"
    attribute {
      name: "value"
      t {
        dims: 2
        data_type: 7
      }
      type: TENSOR
    }
  }
  node {
    input: "275"
    input: "276"
    output: "277"
    name: "Reshape_67"
    op_type: "Reshape"
  }
  node {
    output: "278"
    name: "Constant_68"
    op_type: "Constant"
    attribute {
      name: "value"
      t {
        dims: 1
        data_type: 7
      }
      type: TENSOR
    }
  }
  node {
    output: "279"
    name: "Constant_69"
    op_type: "Constant"
    attribute {
      name: "value"
      t {
        dims: 1
        data_type: 7
      }
      type: TENSOR
    }
  }
  node {
    output: "280"
    name: "Constant_70"
    op_type: "Constant"
    attribute {
      name: "value"
      t {
        dims: 1
        data_type: 7
      }
      type: TENSOR
    }
  }
  node {
    output: "281"
    name: "Constant_71"
    op_type: "Constant"
    attribute {
      name: "value"
      t {
        dims: 1
        data_type: 7
      }
      type: TENSOR
    }
  }
  node {
    input: "277"
    input: "279"
    input: "280"
    input: "278"
    input: "281"
    output: "282"
    name: "Slice_72"
    op_type: "Slice"
  }
  node {
    input: "282"
    output: "283"
    name: "Transpose_73"
    op_type: "Transpose"
    attribute {
      name: "perm"
      ints: 1
      ints: 0
      type: INTS
    }
  }
  node {
    output: "284"
    name: "Constant_74"
    op_type: "Constant"
    attribute {
      name: "value"
      t {
        dims: 1
        data_type: 7
      }
      type: TENSOR
    }
  }
  node {
    input: "283"
    input: "284"
    output: "285"
    name: "Reshape_75"
    op_type: "Reshape"
  }
  node {
    input: "285"
    output: "286"
    name: "Cast_76"
    op_type: "Cast"
    attribute {
      name: "to"
      i: 7
      type: INT
    }
  }
  node {
    output: "287"
    name: "Constant_77"
    op_type: "Constant"
    attribute {
      name: "value"
      t {
        data_type: 1
      }
      type: TENSOR
    }
  }
  node {
    input: "264"
    input: "286"
    input: "287"
    output: "288"
    name: "Pad_78"
    op_type: "Pad"
    attribute {
      name: "mode"
      s: "constant"
      type: STRING
    }
  }
  node {
    input: "263"
    input: "backbone1.9.convs.0.weight"
    input: "backbone1.9.convs.0.bias"
    output: "289"
    name: "Conv_79"
    op_type: "Conv"
    attribute {
      name: "dilations"
      ints: 1
      ints: 1
      type: INTS
    }
    attribute {
      name: "group"
      i: 32
      type: INT
    }
    attribute {
      name: "kernel_shape"
      ints: 3
      ints: 3
      type: INTS
    }
    attribute {
      name: "pads"
      ints: 0
      ints: 0
      ints: 0
      ints: 0
      type: INTS
    }
    attribute {
      name: "strides"
      ints: 2
      ints: 2
      type: INTS
    }
  }
  node {
    input: "289"
    input: "backbone1.9.convs.1.weight"
    input: "backbone1.9.convs.1.bias"
    output: "290"
    name: "Conv_80"
    op_type: "Conv"
    attribute {
      name: "dilations"
      ints: 1
      ints: 1
      type: INTS
    }
    attribute {
      name: "group"
      i: 1
      type: INT
    }
    attribute {
      name: "kernel_shape"
      ints: 1
      ints: 1
      type: INTS
    }
    attribute {
      name: "pads"
      ints: 0
      ints: 0
      ints: 0
      ints: 0
      type: INTS
    }
    attribute {
      name: "strides"
      ints: 1
      ints: 1
      type: INTS
    }
  }
  node {
    input: "290"
    input: "288"
    output: "291"
    name: "Add_81"
    op_type: "Add"
  }
  node {
    input: "291"
    output: "292"
    name: "Relu_82"
    op_type: "Relu"
  }
  node {
    input: "292"
    input: "backbone1.10.convs.0.weight"
    input: "backbone1.10.convs.0.bias"
    output: "293"
    name: "Conv_83"
    op_type: "Conv"
    attribute {
      name: "dilations"
      ints: 1
      ints: 1
      type: INTS
    }
    attribute {
      name: "group"
      i: 64
      type: INT
    }
    attribute {
      name: "kernel_shape"
      ints: 3
      ints: 3
      type: INTS
    }
    attribute {
      name: "pads"
      ints: 1
      ints: 1
      ints: 1
      ints: 1
      type: INTS
    }
    attribute {
      name: "strides"
      ints: 1
      ints: 1
      type: INTS
    }
  }
  node {
    input: "293"
    input: "backbone1.10.convs.1.weight"
    input: "backbone1.10.convs.1.bias"
    output: "294"
    name: "Conv_84"
    op_type: "Conv"
    attribute {
      name: "dilations"
      ints: 1
      ints: 1
      type: INTS
    }
    attribute {
      name: "group"
      i: 1
      type: INT
    }
    attribute {
      name: "kernel_shape"
      ints: 1
      ints: 1
      type: INTS
    }
    attribute {
      name: "pads"
      ints: 0
      ints: 0
      ints: 0
      ints: 0
      type: INTS
    }
    attribute {
      name: "strides"
      ints: 1
      ints: 1
      type: INTS
    }
  }
  node {
    input: "294"
    input: "292"
    output: "295"
    name: "Add_85"
    op_type: "Add"
  }
  node {
    input: "295"
    output: "296"
    name: "Relu_86"
    op_type: "Relu"
  }
  node {
    input: "296"
    input: "backbone1.11.convs.0.weight"
    input: "backbone1.11.convs.0.bias"
    output: "297"
    name: "Conv_87"
    op_type: "Conv"
    attribute {
      name: "dilations"
      ints: 1
      ints: 1
      type: INTS
    }
    attribute {
      name: "group"
      i: 64
      type: INT
    }
    attribute {
      name: "kernel_shape"
      ints: 3
      ints: 3
      type: INTS
    }
    attribute {
      name: "pads"
      ints: 1
      ints: 1
      ints: 1
      ints: 1
      type: INTS
    }
    attribute {
      name: "strides"
      ints: 1
      ints: 1
      type: INTS
    }
  }
  node {
    input: "297"
    input: "backbone1.11.convs.1.weight"
    input: "backbone1.11.convs.1.bias"
    output: "298"
    name: "Conv_88"
    op_type: "Conv"
    attribute {
      name: "dilations"
      ints: 1
      ints: 1
      type: INTS
    }
    attribute {
      name: "group"
      i: 1
      type: INT
    }
    attribute {
      name: "kernel_shape"
      ints: 1
      ints: 1
      type: INTS
    }
    attribute {
      name: "pads"
      ints: 0
      ints: 0
      ints: 0
      ints: 0
      type: INTS
    }
    attribute {
      name: "strides"
      ints: 1
      ints: 1
      type: INTS
    }
  }
  node {
    input: "298"
    input: "296"
    output: "299"
    name: "Add_89"
    op_type: "Add"
  }
  node {
    input: "299"
    output: "300"
    name: "Relu_90"
    op_type: "Relu"
  }
  node {
    input: "300"
    input: "backbone1.12.convs.0.weight"
    input: "backbone1.12.convs.0.bias"
    output: "301"
    name: "Conv_91"
    op_type: "Conv"
    attribute {
      name: "dilations"
      ints: 1
      ints: 1
      type: INTS
    }
    attribute {
      name: "group"
      i: 64
      type: INT
    }
    attribute {
      name: "kernel_shape"
      ints: 3
      ints: 3
      type: INTS
    }
    attribute {
      name: "pads"
      ints: 1
      ints: 1
      ints: 1
      ints: 1
      type: INTS
    }
    attribute {
      name: "strides"
      ints: 1
      ints: 1
      type: INTS
    }
  }
  node {
    input: "301"
    input: "backbone1.12.convs.1.weight"
    input: "backbone1.12.convs.1.bias"
    output: "302"
    name: "Conv_92"
    op_type: "Conv"
    attribute {
      name: "dilations"
      ints: 1
      ints: 1
      type: INTS
    }
    attribute {
      name: "group"
      i: 1
      type: INT
    }
    attribute {
      name: "kernel_shape"
      ints: 1
      ints: 1
      type: INTS
    }
    attribute {
      name: "pads"
      ints: 0
      ints: 0
      ints: 0
      ints: 0
      type: INTS
    }
    attribute {
      name: "strides"
      ints: 1
      ints: 1
      type: INTS
    }
  }
  node {
    input: "302"
    input: "300"
    output: "303"
    name: "Add_93"
    op_type: "Add"
  }
  node {
    input: "303"
    output: "304"
    name: "Relu_94"
    op_type: "Relu"
  }
  node {
    input: "304"
    input: "backbone1.13.convs.0.weight"
    input: "backbone1.13.convs.0.bias"
    output: "305"
    name: "Conv_95"
    op_type: "Conv"
    attribute {
      name: "dilations"
      ints: 1
      ints: 1
      type: INTS
    }
    attribute {
      name: "group"
      i: 64
      type: INT
    }
    attribute {
      name: "kernel_shape"
      ints: 3
      ints: 3
      type: INTS
    }
    attribute {
      name: "pads"
      ints: 1
      ints: 1
      ints: 1
      ints: 1
      type: INTS
    }
    attribute {
      name: "strides"
      ints: 1
      ints: 1
      type: INTS
    }
  }
  node {
    input: "305"
    input: "backbone1.13.convs.1.weight"
    input: "backbone1.13.convs.1.bias"
    output: "306"
    name: "Conv_96"
    op_type: "Conv"
    attribute {
      name: "dilations"
      ints: 1
      ints: 1
      type: INTS
    }
    attribute {
      name: "group"
      i: 1
      type: INT
    }
    attribute {
      name: "kernel_shape"
      ints: 1
      ints: 1
      type: INTS
    }
    attribute {
      name: "pads"
      ints: 0
      ints: 0
      ints: 0
      ints: 0
      type: INTS
    }
    attribute {
      name: "strides"
      ints: 1
      ints: 1
      type: INTS
    }
  }
  node {
    input: "306"
    input: "304"
    output: "307"
    name: "Add_97"
    op_type: "Add"
  }
  node {
    input: "307"
    output: "308"
    name: "Relu_98"
    op_type: "Relu"
  }
  node {
    input: "308"
    input: "backbone1.14.convs.0.weight"
    input: "backbone1.14.convs.0.bias"
    output: "309"
    name: "Conv_99"
    op_type: "Conv"
    attribute {
      name: "dilations"
      ints: 1
      ints: 1
      type: INTS
    }
    attribute {
      name: "group"
      i: 64
      type: INT
    }
    attribute {
      name: "kernel_shape"
      ints: 3
      ints: 3
      type: INTS
    }
    attribute {
      name: "pads"
      ints: 1
      ints: 1
      ints: 1
      ints: 1
      type: INTS
    }
    attribute {
      name: "strides"
      ints: 1
      ints: 1
      type: INTS
    }
  }
  node {
    input: "309"
    input: "backbone1.14.convs.1.weight"
    input: "backbone1.14.convs.1.bias"
    output: "310"
    name: "Conv_100"
    op_type: "Conv"
    attribute {
      name: "dilations"
      ints: 1
      ints: 1
      type: INTS
    }
    attribute {
      name: "group"
      i: 1
      type: INT
    }
    attribute {
      name: "kernel_shape"
      ints: 1
      ints: 1
      type: INTS
    }
    attribute {
      name: "pads"
      ints: 0
      ints: 0
      ints: 0
      ints: 0
      type: INTS
    }
    attribute {
      name: "strides"
      ints: 1
      ints: 1
      type: INTS
    }
  }
  node {
    input: "310"
    input: "308"
    output: "311"
    name: "Add_101"
    op_type: "Add"
  }
  node {
    input: "311"
    output: "312"
    name: "Relu_102"
    op_type: "Relu"
  }
  node {
    input: "312"
    input: "backbone1.15.convs.0.weight"
    input: "backbone1.15.convs.0.bias"
    output: "313"
    name: "Conv_103"
    op_type: "Conv"
    attribute {
      name: "dilations"
      ints: 1
      ints: 1
      type: INTS
    }
    attribute {
      name: "group"
      i: 64
      type: INT
    }
    attribute {
      name: "kernel_shape"
      ints: 3
      ints: 3
      type: INTS
    }
    attribute {
      name: "pads"
      ints: 1
      ints: 1
      ints: 1
      ints: 1
      type: INTS
    }
    attribute {
      name: "strides"
      ints: 1
      ints: 1
      type: INTS
    }
  }
  node {
    input: "313"
    input: "backbone1.15.convs.1.weight"
    input: "backbone1.15.convs.1.bias"
    output: "314"
    name: "Conv_104"
    op_type: "Conv"
    attribute {
      name: "dilations"
      ints: 1
      ints: 1
      type: INTS
    }
    attribute {
      name: "group"
      i: 1
      type: INT
    }
    attribute {
      name: "kernel_shape"
      ints: 1
      ints: 1
      type: INTS
    }
    attribute {
      name: "pads"
      ints: 0
      ints: 0
      ints: 0
      ints: 0
      type: INTS
    }
    attribute {
      name: "strides"
      ints: 1
      ints: 1
      type: INTS
    }
  }
  node {
    input: "314"
    input: "312"
    output: "315"
    name: "Add_105"
    op_type: "Add"
  }
  node {
    input: "315"
    output: "316"
    name: "Relu_106"
    op_type: "Relu"
  }
  node {
    input: "316"
    input: "backbone1.16.convs.0.weight"
    input: "backbone1.16.convs.0.bias"
    output: "317"
    name: "Conv_107"
    op_type: "Conv"
    attribute {
      name: "dilations"
      ints: 1
      ints: 1
      type: INTS
    }
    attribute {
      name: "group"
      i: 64
      type: INT
    }
    attribute {
      name: "kernel_shape"
      ints: 3
      ints: 3
      type: INTS
    }
    attribute {
      name: "pads"
      ints: 1
      ints: 1
      ints: 1
      ints: 1
      type: INTS
    }
    attribute {
      name: "strides"
      ints: 1
      ints: 1
      type: INTS
    }
  }
  node {
    input: "317"
    input: "backbone1.16.convs.1.weight"
    input: "backbone1.16.convs.1.bias"
    output: "318"
    name: "Conv_108"
    op_type: "Conv"
    attribute {
      name: "dilations"
      ints: 1
      ints: 1
      type: INTS
    }
    attribute {
      name: "group"
      i: 1
      type: INT
    }
    attribute {
      name: "kernel_shape"
      ints: 1
      ints: 1
      type: INTS
    }
    attribute {
      name: "pads"
      ints: 0
      ints: 0
      ints: 0
      ints: 0
      type: INTS
    }
    attribute {
      name: "strides"
      ints: 1
      ints: 1
      type: INTS
    }
  }
  node {
    input: "318"
    input: "316"
    output: "319"
    name: "Add_109"
    op_type: "Add"
  }
  node {
    input: "319"
    output: "320"
    name: "Relu_110"
    op_type: "Relu"
  }
  node {
    input: "628"
    output: "330"
    name: "ConstantOfShape_111"
    op_type: "ConstantOfShape"
    attribute {
      name: "value"
      t {
        dims: 1
        data_type: 7
        raw_data: "\000\000\000\000\000\000\000\000"
      }
      type: TENSOR
    }
  }
  node {
    input: "629"
    input: "330"
    output: "331"
    name: "Concat_112"
    op_type: "Concat"
    attribute {
      name: "axis"
      i: 0
      type: INT
    }
  }
  node {
    output: "332"
    name: "Constant_113"
    op_type: "Constant"
    attribute {
      name: "value"
      t {
        dims: 2
        data_type: 7
      }
      type: TENSOR
    }
  }
  node {
    input: "331"
    input: "332"
    output: "333"
    name: "Reshape_114"
    op_type: "Reshape"
  }
  node {
    output: "334"
    name: "Constant_115"
    op_type: "Constant"
    attribute {
      name: "value"
      t {
        dims: 1
        data_type: 7
      }
      type: TENSOR
    }
  }
  node {
    output: "335"
    name: "Constant_116"
    op_type: "Constant"
    attribute {
      name: "value"
      t {
        dims: 1
        data_type: 7
      }
      type: TENSOR
    }
  }
  node {
    output: "336"
    name: "Constant_117"
    op_type: "Constant"
    attribute {
      name: "value"
      t {
        dims: 1
        data_type: 7
      }
      type: TENSOR
    }
  }
  node {
    output: "337"
    name: "Constant_118"
    op_type: "Constant"
    attribute {
      name: "value"
      t {
        dims: 1
        data_type: 7
      }
      type: TENSOR
    }
  }
  node {
    input: "333"
    input: "335"
    input: "336"
    input: "334"
    input: "337"
    output: "338"
    name: "Slice_119"
    op_type: "Slice"
  }
  node {
    input: "338"
    output: "339"
    name: "Transpose_120"
    op_type: "Transpose"
    attribute {
      name: "perm"
      ints: 1
      ints: 0
      type: INTS
    }
  }
  node {
    output: "340"
    name: "Constant_121"
    op_type: "Constant"
    attribute {
      name: "value"
      t {
        dims: 1
        data_type: 7
      }
      type: TENSOR
    }
  }
  node {
    input: "339"
    input: "340"
    output: "341"
    name: "Reshape_122"
    op_type: "Reshape"
  }
  node {
    input: "341"
    output: "342"
    name: "Cast_123"
    op_type: "Cast"
    attribute {
      name: "to"
      i: 7
      type: INT
    }
  }
  node {
    output: "343"
    name: "Constant_124"
    op_type: "Constant"
    attribute {
      name: "value"
      t {
        data_type: 1
      }
      type: TENSOR
    }
  }
  node {
    input: "320"
    input: "342"
    input: "343"
    output: "344"
    name: "Pad_125"
    op_type: "Pad"
    attribute {
      name: "mode"
      s: "constant"
      type: STRING
    }
  }
  node {
    input: "320"
    output: "345"
    name: "MaxPool_126"
    op_type: "MaxPool"
    attribute {
      name: "ceil_mode"
      i: 0
      type: INT
    }
    attribute {
      name: "kernel_shape"
      ints: 2
      ints: 2
      type: INTS
    }
    attribute {
      name: "pads"
      ints: 0
      ints: 0
      ints: 0
      ints: 0
      type: INTS
    }
    attribute {
      name: "strides"
      ints: 2
      ints: 2
      type: INTS
    }
  }
  node {
    input: "633"
    output: "355"
    name: "ConstantOfShape_127"
    op_type: "ConstantOfShape"
    attribute {
      name: "value"
      t {
        dims: 1
        data_type: 7
        raw_data: "\000\000\000\000\000\000\000\000"
      }
      type: TENSOR
    }
  }
  node {
    input: "634"
    input: "355"
    output: "356"
    name: "Concat_128"
    op_type: "Concat"
    attribute {
      name: "axis"
      i: 0
      type: INT
    }
  }
  node {
    output: "357"
    name: "Constant_129"
    op_type: "Constant"
    attribute {
      name: "value"
      t {
        dims: 2
        data_type: 7
      }
      type: TENSOR
    }
  }
  node {
    input: "356"
    input: "357"
    output: "358"
    name: "Reshape_130"
    op_type: "Reshape"
  }
  node {
    output: "359"
    name: "Constant_131"
    op_type: "Constant"
    attribute {
      name: "value"
      t {
        dims: 1
        data_type: 7
      }
      type: TENSOR
    }
  }
  node {
    output: "360"
    name: "Constant_132"
    op_type: "Constant"
    attribute {
      name: "value"
      t {
        dims: 1
        data_type: 7
      }
      type: TENSOR
    }
  }
  node {
    output: "361"
    name: "Constant_133"
    op_type: "Constant"
    attribute {
      name: "value"
      t {
        dims: 1
        data_type: 7
      }
      type: TENSOR
    }
  }
  node {
    output: "362"
    name: "Constant_134"
    op_type: "Constant"
    attribute {
      name: "value"
      t {
        dims: 1
        data_type: 7
      }
      type: TENSOR
    }
  }
  node {
    input: "358"
    input: "360"
    input: "361"
    input: "359"
    input: "362"
    output: "363"
    name: "Slice_135"
    op_type: "Slice"
  }
  node {
    input: "363"
    output: "364"
    name: "Transpose_136"
    op_type: "Transpose"
    attribute {
      name: "perm"
      ints: 1
      ints: 0
      type: INTS
    }
  }
  node {
    output: "365"
    name: "Constant_137"
    op_type: "Constant"
    attribute {
      name: "value"
      t {
        dims: 1
        data_type: 7
      }
      type: TENSOR
    }
  }
  node {
    input: "364"
    input: "365"
    output: "366"
    name: "Reshape_138"
    op_type: "Reshape"
  }
  node {
    input: "366"
    output: "367"
    name: "Cast_139"
    op_type: "Cast"
    attribute {
      name: "to"
      i: 7
      type: INT
    }
  }
  node {
    output: "368"
    name: "Constant_140"
    op_type: "Constant"
    attribute {
      name: "value"
      t {
        data_type: 1
      }
      type: TENSOR
    }
  }
  node {
    input: "345"
    input: "367"
    input: "368"
    output: "369"
    name: "Pad_141"
    op_type: "Pad"
    attribute {
      name: "mode"
      s: "constant"
      type: STRING
    }
  }
  node {
    input: "344"
    input: "backbone1.17.convs.0.weight"
    input: "backbone1.17.convs.0.bias"
    output: "370"
    name: "Conv_142"
    op_type: "Conv"
    attribute {
      name: "dilations"
      ints: 1
      ints: 1
      type: INTS
    }
    attribute {
      name: "group"
      i: 64
      type: INT
    }
    attribute {
      name: "kernel_shape"
      ints: 3
      ints: 3
      type: INTS
    }
    attribute {
      name: "pads"
      ints: 0
      ints: 0
      ints: 0
      ints: 0
      type: INTS
    }
    attribute {
      name: "strides"
      ints: 2
      ints: 2
      type: INTS
    }
  }
  node {
    input: "370"
    input: "backbone1.17.convs.1.weight"
    input: "backbone1.17.convs.1.bias"
    output: "371"
    name: "Conv_143"
    op_type: "Conv"
    attribute {
      name: "dilations"
      ints: 1
      ints: 1
      type: INTS
    }
    attribute {
      name: "group"
      i: 1
      type: INT
    }
    attribute {
      name: "kernel_shape"
      ints: 1
      ints: 1
      type: INTS
    }
    attribute {
      name: "pads"
      ints: 0
      ints: 0
      ints: 0
      ints: 0
      type: INTS
    }
    attribute {
      name: "strides"
      ints: 1
      ints: 1
      type: INTS
    }
  }
  node {
    input: "371"
    input: "369"
    output: "372"
    name: "Add_144"
    op_type: "Add"
  }
  node {
    input: "372"
    output: "373"
    name: "Relu_145"
    op_type: "Relu"
  }
  node {
    input: "373"
    input: "backbone1.18.convs.0.weight"
    input: "backbone1.18.convs.0.bias"
    output: "374"
    name: "Conv_146"
    op_type: "Conv"
    attribute {
      name: "dilations"
      ints: 1
      ints: 1
      type: INTS
    }
    attribute {
      name: "group"
      i: 128
      type: INT
    }
    attribute {
      name: "kernel_shape"
      ints: 3
      ints: 3
      type: INTS
    }
    attribute {
      name: "pads"
      ints: 1
      ints: 1
      ints: 1
      ints: 1
      type: INTS
    }
    attribute {
      name: "strides"
      ints: 1
      ints: 1
      type: INTS
    }
  }
  node {
    input: "374"
    input: "backbone1.18.convs.1.weight"
    input: "backbone1.18.convs.1.bias"
    output: "375"
    name: "Conv_147"
    op_type: "Conv"
    attribute {
      name: "dilations"
      ints: 1
      ints: 1
      type: INTS
    }
    attribute {
      name: "group"
      i: 1
      type: INT
    }
    attribute {
      name: "kernel_shape"
      ints: 1
      ints: 1
      type: INTS
    }
    attribute {
      name: "pads"
      ints: 0
      ints: 0
      ints: 0
      ints: 0
      type: INTS
    }
    attribute {
      name: "strides"
      ints: 1
      ints: 1
      type: INTS
    }
  }
  node {
    input: "375"
    input: "373"
    output: "376"
    name: "Add_148"
    op_type: "Add"
  }
  node {
    input: "376"
    output: "377"
    name: "Relu_149"
    op_type: "Relu"
  }
  node {
    input: "377"
    input: "backbone1.19.convs.0.weight"
    input: "backbone1.19.convs.0.bias"
    output: "378"
    name: "Conv_150"
    op_type: "Conv"
    attribute {
      name: "dilations"
      ints: 1
      ints: 1
      type: INTS
    }
    attribute {
      name: "group"
      i: 128
      type: INT
    }
    attribute {
      name: "kernel_shape"
      ints: 3
      ints: 3
      type: INTS
    }
    attribute {
      name: "pads"
      ints: 1
      ints: 1
      ints: 1
      ints: 1
      type: INTS
    }
    attribute {
      name: "strides"
      ints: 1
      ints: 1
      type: INTS
    }
  }
  node {
    input: "378"
    input: "backbone1.19.convs.1.weight"
    input: "backbone1.19.convs.1.bias"
    output: "379"
    name: "Conv_151"
    op_type: "Conv"
    attribute {
      name: "dilations"
      ints: 1
      ints: 1
      type: INTS
    }
    attribute {
      name: "group"
      i: 1
      type: INT
    }
    attribute {
      name: "kernel_shape"
      ints: 1
      ints: 1
      type: INTS
    }
    attribute {
      name: "pads"
      ints: 0
      ints: 0
      ints: 0
      ints: 0
      type: INTS
    }
    attribute {
      name: "strides"
      ints: 1
      ints: 1
      type: INTS
    }
  }
  node {
    input: "379"
    input: "377"
    output: "380"
    name: "Add_152"
    op_type: "Add"
  }
  node {
    input: "380"
    output: "381"
    name: "Relu_153"
    op_type: "Relu"
  }
  node {
    input: "381"
    input: "backbone1.20.convs.0.weight"
    input: "backbone1.20.convs.0.bias"
    output: "382"
    name: "Conv_154"
    op_type: "Conv"
    attribute {
      name: "dilations"
      ints: 1
      ints: 1
      type: INTS
    }
    attribute {
      name: "group"
      i: 128
      type: INT
    }
    attribute {
      name: "kernel_shape"
      ints: 3
      ints: 3
      type: INTS
    }
    attribute {
      name: "pads"
      ints: 1
      ints: 1
      ints: 1
      ints: 1
      type: INTS
    }
    attribute {
      name: "strides"
      ints: 1
      ints: 1
      type: INTS
    }
  }
  node {
    input: "382"
    input: "backbone1.20.convs.1.weight"
    input: "backbone1.20.convs.1.bias"
    output: "383"
    name: "Conv_155"
    op_type: "Conv"
    attribute {
      name: "dilations"
      ints: 1
      ints: 1
      type: INTS
    }
    attribute {
      name: "group"
      i: 1
      type: INT
    }
    attribute {
      name: "kernel_shape"
      ints: 1
      ints: 1
      type: INTS
    }
    attribute {
      name: "pads"
      ints: 0
      ints: 0
      ints: 0
      ints: 0
      type: INTS
    }
    attribute {
      name: "strides"
      ints: 1
      ints: 1
      type: INTS
    }
  }
  node {
    input: "383"
    input: "381"
    output: "384"
    name: "Add_156"
    op_type: "Add"
  }
  node {
    input: "384"
    output: "385"
    name: "Relu_157"
    op_type: "Relu"
  }
  node {
    input: "385"
    input: "backbone1.21.convs.0.weight"
    input: "backbone1.21.convs.0.bias"
    output: "386"
    name: "Conv_158"
    op_type: "Conv"
    attribute {
      name: "dilations"
      ints: 1
      ints: 1
      type: INTS
    }
    attribute {
      name: "group"
      i: 128
      type: INT
    }
    attribute {
      name: "kernel_shape"
      ints: 3
      ints: 3
      type: INTS
    }
    attribute {
      name: "pads"
      ints: 1
      ints: 1
      ints: 1
      ints: 1
      type: INTS
    }
    attribute {
      name: "strides"
      ints: 1
      ints: 1
      type: INTS
    }
  }
  node {
    input: "386"
    input: "backbone1.21.convs.1.weight"
    input: "backbone1.21.convs.1.bias"
    output: "387"
    name: "Conv_159"
    op_type: "Conv"
    attribute {
      name: "dilations"
      ints: 1
      ints: 1
      type: INTS
    }
    attribute {
      name: "group"
      i: 1
      type: INT
    }
    attribute {
      name: "kernel_shape"
      ints: 1
      ints: 1
      type: INTS
    }
    attribute {
      name: "pads"
      ints: 0
      ints: 0
      ints: 0
      ints: 0
      type: INTS
    }
    attribute {
      name: "strides"
      ints: 1
      ints: 1
      type: INTS
    }
  }
  node {
    input: "387"
    input: "385"
    output: "388"
    name: "Add_160"
    op_type: "Add"
  }
  node {
    input: "388"
    output: "389"
    name: "Relu_161"
    op_type: "Relu"
  }
  node {
    input: "389"
    input: "backbone1.22.convs.0.weight"
    input: "backbone1.22.convs.0.bias"
    output: "390"
    name: "Conv_162"
    op_type: "Conv"
    attribute {
      name: "dilations"
      ints: 1
      ints: 1
      type: INTS
    }
    attribute {
      name: "group"
      i: 128
      type: INT
    }
    attribute {
      name: "kernel_shape"
      ints: 3
      ints: 3
      type: INTS
    }
    attribute {
      name: "pads"
      ints: 1
      ints: 1
      ints: 1
      ints: 1
      type: INTS
    }
    attribute {
      name: "strides"
      ints: 1
      ints: 1
      type: INTS
    }
  }
  node {
    input: "390"
    input: "backbone1.22.convs.1.weight"
    input: "backbone1.22.convs.1.bias"
    output: "391"
    name: "Conv_163"
    op_type: "Conv"
    attribute {
      name: "dilations"
      ints: 1
      ints: 1
      type: INTS
    }
    attribute {
      name: "group"
      i: 1
      type: INT
    }
    attribute {
      name: "kernel_shape"
      ints: 1
      ints: 1
      type: INTS
    }
    attribute {
      name: "pads"
      ints: 0
      ints: 0
      ints: 0
      ints: 0
      type: INTS
    }
    attribute {
      name: "strides"
      ints: 1
      ints: 1
      type: INTS
    }
  }
  node {
    input: "391"
    input: "389"
    output: "392"
    name: "Add_164"
    op_type: "Add"
  }
  node {
    input: "392"
    output: "393"
    name: "Relu_165"
    op_type: "Relu"
  }
  node {
    input: "393"
    input: "backbone1.23.convs.0.weight"
    input: "backbone1.23.convs.0.bias"
    output: "394"
    name: "Conv_166"
    op_type: "Conv"
    attribute {
      name: "dilations"
      ints: 1
      ints: 1
      type: INTS
    }
    attribute {
      name: "group"
      i: 128
      type: INT
    }
    attribute {
      name: "kernel_shape"
      ints: 3
      ints: 3
      type: INTS
    }
    attribute {
      name: "pads"
      ints: 1
      ints: 1
      ints: 1
      ints: 1
      type: INTS
    }
    attribute {
      name: "strides"
      ints: 1
      ints: 1
      type: INTS
    }
  }
  node {
    input: "394"
    input: "backbone1.23.convs.1.weight"
    input: "backbone1.23.convs.1.bias"
    output: "395"
    name: "Conv_167"
    op_type: "Conv"
    attribute {
      name: "dilations"
      ints: 1
      ints: 1
      type: INTS
    }
    attribute {
      name: "group"
      i: 1
      type: INT
    }
    attribute {
      name: "kernel_shape"
      ints: 1
      ints: 1
      type: INTS
    }
    attribute {
      name: "pads"
      ints: 0
      ints: 0
      ints: 0
      ints: 0
      type: INTS
    }
    attribute {
      name: "strides"
      ints: 1
      ints: 1
      type: INTS
    }
  }
  node {
    input: "395"
    input: "393"
    output: "396"
    name: "Add_168"
    op_type: "Add"
  }
  node {
    input: "396"
    output: "397"
    name: "Relu_169"
    op_type: "Relu"
  }
  node {
    input: "397"
    input: "backbone1.24.convs.0.weight"
    input: "backbone1.24.convs.0.bias"
    output: "398"
    name: "Conv_170"
    op_type: "Conv"
    attribute {
      name: "dilations"
      ints: 1
      ints: 1
      type: INTS
    }
    attribute {
      name: "group"
      i: 128
      type: INT
    }
    attribute {
      name: "kernel_shape"
      ints: 3
      ints: 3
      type: INTS
    }
    attribute {
      name: "pads"
      ints: 1
      ints: 1
      ints: 1
      ints: 1
      type: INTS
    }
    attribute {
      name: "strides"
      ints: 1
      ints: 1
      type: INTS
    }
  }
  node {
    input: "398"
    input: "backbone1.24.convs.1.weight"
    input: "backbone1.24.convs.1.bias"
    output: "399"
    name: "Conv_171"
    op_type: "Conv"
    attribute {
      name: "dilations"
      ints: 1
      ints: 1
      type: INTS
    }
    attribute {
      name: "group"
      i: 1
      type: INT
    }
    attribute {
      name: "kernel_shape"
      ints: 1
      ints: 1
      type: INTS
    }
    attribute {
      name: "pads"
      ints: 0
      ints: 0
      ints: 0
      ints: 0
      type: INTS
    }
    attribute {
      name: "strides"
      ints: 1
      ints: 1
      type: INTS
    }
  }
  node {
    input: "399"
    input: "397"
    output: "400"
    name: "Add_172"
    op_type: "Add"
  }
  node {
    input: "400"
    output: "401"
    name: "Relu_173"
    op_type: "Relu"
  }
  node {
    input: "638"
    output: "411"
    name: "ConstantOfShape_174"
    op_type: "ConstantOfShape"
    attribute {
      name: "value"
      t {
        dims: 1
        data_type: 7
        raw_data: "\000\000\000\000\000\000\000\000"
      }
      type: TENSOR
    }
  }
  node {
    input: "639"
    input: "411"
    output: "412"
    name: "Concat_175"
    op_type: "Concat"
    attribute {
      name: "axis"
      i: 0
      type: INT
    }
  }
  node {
    output: "413"
    name: "Constant_176"
    op_type: "Constant"
    attribute {
      name: "value"
      t {
        dims: 2
        data_type: 7
      }
      type: TENSOR
    }
  }
  node {
    input: "412"
    input: "413"
    output: "414"
    name: "Reshape_177"
    op_type: "Reshape"
  }
  node {
    output: "415"
    name: "Constant_178"
    op_type: "Constant"
    attribute {
      name: "value"
      t {
        dims: 1
        data_type: 7
      }
      type: TENSOR
    }
  }
  node {
    output: "416"
    name: "Constant_179"
    op_type: "Constant"
    attribute {
      name: "value"
      t {
        dims: 1
        data_type: 7
      }
      type: TENSOR
    }
  }
  node {
    output: "417"
    name: "Constant_180"
    op_type: "Constant"
    attribute {
      name: "value"
      t {
        dims: 1
        data_type: 7
      }
      type: TENSOR
    }
  }
  node {
    output: "418"
    name: "Constant_181"
    op_type: "Constant"
    attribute {
      name: "value"
      t {
        dims: 1
        data_type: 7
      }
      type: TENSOR
    }
  }
  node {
    input: "414"
    input: "416"
    input: "417"
    input: "415"
    input: "418"
    output: "419"
    name: "Slice_182"
    op_type: "Slice"
  }
  node {
    input: "419"
    output: "420"
    name: "Transpose_183"
    op_type: "Transpose"
    attribute {
      name: "perm"
      ints: 1
      ints: 0
      type: INTS
    }
  }
  node {
    output: "421"
    name: "Constant_184"
    op_type: "Constant"
    attribute {
      name: "value"
      t {
        dims: 1
        data_type: 7
      }
      type: TENSOR
    }
  }
  node {
    input: "420"
    input: "421"
    output: "422"
    name: "Reshape_185"
    op_type: "Reshape"
  }
  node {
    input: "422"
    output: "423"
    name: "Cast_186"
    op_type: "Cast"
    attribute {
      name: "to"
      i: 7
      type: INT
    }
  }
  node {
    output: "424"
    name: "Constant_187"
    op_type: "Constant"
    attribute {
      name: "value"
      t {
        data_type: 1
      }
      type: TENSOR
    }
  }
  node {
    input: "401"
    input: "423"
    input: "424"
    output: "425"
    name: "Pad_188"
    op_type: "Pad"
    attribute {
      name: "mode"
      s: "constant"
      type: STRING
    }
  }
  node {
    input: "401"
    output: "426"
    name: "MaxPool_189"
    op_type: "MaxPool"
    attribute {
      name: "ceil_mode"
      i: 0
      type: INT
    }
    attribute {
      name: "kernel_shape"
      ints: 2
      ints: 2
      type: INTS
    }
    attribute {
      name: "pads"
      ints: 0
      ints: 0
      ints: 0
      ints: 0
      type: INTS
    }
    attribute {
      name: "strides"
      ints: 2
      ints: 2
      type: INTS
    }
  }
  node {
    input: "643"
    output: "436"
    name: "ConstantOfShape_190"
    op_type: "ConstantOfShape"
    attribute {
      name: "value"
      t {
        dims: 1
        data_type: 7
        raw_data: "\000\000\000\000\000\000\000\000"
      }
      type: TENSOR
    }
  }
  node {
    input: "644"
    input: "436"
    output: "437"
    name: "Concat_191"
    op_type: "Concat"
    attribute {
      name: "axis"
      i: 0
      type: INT
    }
  }
  node {
    output: "438"
    name: "Constant_192"
    op_type: "Constant"
    attribute {
      name: "value"
      t {
        dims: 2
        data_type: 7
      }
      type: TENSOR
    }
  }
  node {
    input: "437"
    input: "438"
    output: "439"
    name: "Reshape_193"
    op_type: "Reshape"
  }
  node {
    output: "440"
    name: "Constant_194"
    op_type: "Constant"
    attribute {
      name: "value"
      t {
        dims: 1
        data_type: 7
      }
      type: TENSOR
    }
  }
  node {
    output: "441"
    name: "Constant_195"
    op_type: "Constant"
    attribute {
      name: "value"
      t {
        dims: 1
        data_type: 7
      }
      type: TENSOR
    }
  }
  node {
    output: "442"
    name: "Constant_196"
    op_type: "Constant"
    attribute {
      name: "value"
      t {
        dims: 1
        data_type: 7
      }
      type: TENSOR
    }
  }
  node {
    output: "443"
    name: "Constant_197"
    op_type: "Constant"
    attribute {
      name: "value"
      t {
        dims: 1
        data_type: 7
      }
      type: TENSOR
    }
  }
  node {
    input: "439"
    input: "441"
    input: "442"
    input: "440"
    input: "443"
    output: "444"
    name: "Slice_198"
    op_type: "Slice"
  }
  node {
    input: "444"
    output: "445"
    name: "Transpose_199"
    op_type: "Transpose"
    attribute {
      name: "perm"
      ints: 1
      ints: 0
      type: INTS
    }
  }
  node {
    output: "446"
    name: "Constant_200"
    op_type: "Constant"
    attribute {
      name: "value"
      t {
        dims: 1
        data_type: 7
      }
      type: TENSOR
    }
  }
  node {
    input: "445"
    input: "446"
    output: "447"
    name: "Reshape_201"
    op_type: "Reshape"
  }
  node {
    input: "447"
    output: "448"
    name: "Cast_202"
    op_type: "Cast"
    attribute {
      name: "to"
      i: 7
      type: INT
    }
  }
  node {
    output: "449"
    name: "Constant_203"
    op_type: "Constant"
    attribute {
      name: "value"
      t {
        data_type: 1
      }
      type: TENSOR
    }
  }
  node {
    input: "426"
    input: "448"
    input: "449"
    output: "450"
    name: "Pad_204"
    op_type: "Pad"
    attribute {
      name: "mode"
      s: "constant"
      type: STRING
    }
  }
  node {
    input: "425"
    input: "backbone2.0.convs.0.weight"
    input: "backbone2.0.convs.0.bias"
    output: "451"
    name: "Conv_205"
    op_type: "Conv"
    attribute {
      name: "dilations"
      ints: 1
      ints: 1
      type: INTS
    }
    attribute {
      name: "group"
      i: 128
      type: INT
    }
    attribute {
      name: "kernel_shape"
      ints: 3
      ints: 3
      type: INTS
    }
    attribute {
      name: "pads"
      ints: 0
      ints: 0
      ints: 0
      ints: 0
      type: INTS
    }
    attribute {
      name: "strides"
      ints: 2
      ints: 2
      type: INTS
    }
  }
  node {
    input: "451"
    input: "backbone2.0.convs.1.weight"
    input: "backbone2.0.convs.1.bias"
    output: "452"
    name: "Conv_206"
    op_type: "Conv"
    attribute {
      name: "dilations"
      ints: 1
      ints: 1
      type: INTS
    }
    attribute {
      name: "group"
      i: 1
      type: INT
    }
    attribute {
      name: "kernel_shape"
      ints: 1
      ints: 1
      type: INTS
    }
    attribute {
      name: "pads"
      ints: 0
      ints: 0
      ints: 0
      ints: 0
      type: INTS
    }
    attribute {
      name: "strides"
      ints: 1
      ints: 1
      type: INTS
    }
  }
  node {
    input: "452"
    input: "450"
    output: "453"
    name: "Add_207"
    op_type: "Add"
  }
  node {
    input: "453"
    output: "454"
    name: "Relu_208"
    op_type: "Relu"
  }
  node {
    input: "454"
    input: "backbone2.1.convs.0.weight"
    input: "backbone2.1.convs.0.bias"
    output: "455"
    name: "Conv_209"
    op_type: "Conv"
    attribute {
      name: "dilations"
      ints: 1
      ints: 1
      type: INTS
    }
    attribute {
      name: "group"
      i: 256
      type: INT
    }
    attribute {
      name: "kernel_shape"
      ints: 3
      ints: 3
      type: INTS
    }
    attribute {
      name: "pads"
      ints: 1
      ints: 1
      ints: 1
      ints: 1
      type: INTS
    }
    attribute {
      name: "strides"
      ints: 1
      ints: 1
      type: INTS
    }
  }
  node {
    input: "455"
    input: "backbone2.1.convs.1.weight"
    input: "backbone2.1.convs.1.bias"
    output: "456"
    name: "Conv_210"
    op_type: "Conv"
    attribute {
      name: "dilations"
      ints: 1
      ints: 1
      type: INTS
    }
    attribute {
      name: "group"
      i: 1
      type: INT
    }
    attribute {
      name: "kernel_shape"
      ints: 1
      ints: 1
      type: INTS
    }
    attribute {
      name: "pads"
      ints: 0
      ints: 0
      ints: 0
      ints: 0
      type: INTS
    }
    attribute {
      name: "strides"
      ints: 1
      ints: 1
      type: INTS
    }
  }
  node {
    input: "456"
    input: "454"
    output: "457"
    name: "Add_211"
    op_type: "Add"
  }
  node {
    input: "457"
    output: "458"
    name: "Relu_212"
    op_type: "Relu"
  }
  node {
    input: "458"
    input: "backbone2.2.convs.0.weight"
    input: "backbone2.2.convs.0.bias"
    output: "459"
    name: "Conv_213"
    op_type: "Conv"
    attribute {
      name: "dilations"
      ints: 1
      ints: 1
      type: INTS
    }
    attribute {
      name: "group"
      i: 256
      type: INT
    }
    attribute {
      name: "kernel_shape"
      ints: 3
      ints: 3
      type: INTS
    }
    attribute {
      name: "pads"
      ints: 1
      ints: 1
      ints: 1
      ints: 1
      type: INTS
    }
    attribute {
      name: "strides"
      ints: 1
      ints: 1
      type: INTS
    }
  }
  node {
    input: "459"
    input: "backbone2.2.convs.1.weight"
    input: "backbone2.2.convs.1.bias"
    output: "460"
    name: "Conv_214"
    op_type: "Conv"
    attribute {
      name: "dilations"
      ints: 1
      ints: 1
      type: INTS
    }
    attribute {
      name: "group"
      i: 1
      type: INT
    }
    attribute {
      name: "kernel_shape"
      ints: 1
      ints: 1
      type: INTS
    }
    attribute {
      name: "pads"
      ints: 0
      ints: 0
      ints: 0
      ints: 0
      type: INTS
    }
    attribute {
      name: "strides"
      ints: 1
      ints: 1
      type: INTS
    }
  }
  node {
    input: "460"
    input: "458"
    output: "461"
    name: "Add_215"
    op_type: "Add"
  }
  node {
    input: "461"
    output: "462"
    name: "Relu_216"
    op_type: "Relu"
  }
  node {
    input: "462"
    input: "backbone2.3.convs.0.weight"
    input: "backbone2.3.convs.0.bias"
    output: "463"
    name: "Conv_217"
    op_type: "Conv"
    attribute {
      name: "dilations"
      ints: 1
      ints: 1
      type: INTS
    }
    attribute {
      name: "group"
      i: 256
      type: INT
    }
    attribute {
      name: "kernel_shape"
      ints: 3
      ints: 3
      type: INTS
    }
    attribute {
      name: "pads"
      ints: 1
      ints: 1
      ints: 1
      ints: 1
      type: INTS
    }
    attribute {
      name: "strides"
      ints: 1
      ints: 1
      type: INTS
    }
  }
  node {
    input: "463"
    input: "backbone2.3.convs.1.weight"
    input: "backbone2.3.convs.1.bias"
    output: "464"
    name: "Conv_218"
    op_type: "Conv"
    attribute {
      name: "dilations"
      ints: 1
      ints: 1
      type: INTS
    }
    attribute {
      name: "group"
      i: 1
      type: INT
    }
    attribute {
      name: "kernel_shape"
      ints: 1
      ints: 1
      type: INTS
    }
    attribute {
      name: "pads"
      ints: 0
      ints: 0
      ints: 0
      ints: 0
      type: INTS
    }
    attribute {
      name: "strides"
      ints: 1
      ints: 1
      type: INTS
    }
  }
  node {
    input: "464"
    input: "462"
    output: "465"
    name: "Add_219"
    op_type: "Add"
  }
  node {
    input: "465"
    output: "466"
    name: "Relu_220"
    op_type: "Relu"
  }
  node {
    input: "466"
    input: "backbone2.4.convs.0.weight"
    input: "backbone2.4.convs.0.bias"
    output: "467"
    name: "Conv_221"
    op_type: "Conv"
    attribute {
      name: "dilations"
      ints: 1
      ints: 1
      type: INTS
    }
    attribute {
      name: "group"
      i: 256
      type: INT
    }
    attribute {
      name: "kernel_shape"
      ints: 3
      ints: 3
      type: INTS
    }
    attribute {
      name: "pads"
      ints: 1
      ints: 1
      ints: 1
      ints: 1
      type: INTS
    }
    attribute {
      name: "strides"
      ints: 1
      ints: 1
      type: INTS
    }
  }
  node {
    input: "467"
    input: "backbone2.4.convs.1.weight"
    input: "backbone2.4.convs.1.bias"
    output: "468"
    name: "Conv_222"
    op_type: "Conv"
    attribute {
      name: "dilations"
      ints: 1
      ints: 1
      type: INTS
    }
    attribute {
      name: "group"
      i: 1
      type: INT
    }
    attribute {
      name: "kernel_shape"
      ints: 1
      ints: 1
      type: INTS
    }
    attribute {
      name: "pads"
      ints: 0
      ints: 0
      ints: 0
      ints: 0
      type: INTS
    }
    attribute {
      name: "strides"
      ints: 1
      ints: 1
      type: INTS
    }
  }
  node {
    input: "468"
    input: "466"
    output: "469"
    name: "Add_223"
    op_type: "Add"
  }
  node {
    input: "469"
    output: "470"
    name: "Relu_224"
    op_type: "Relu"
  }
  node {
    input: "470"
    input: "backbone2.5.convs.0.weight"
    input: "backbone2.5.convs.0.bias"
    output: "471"
    name: "Conv_225"
    op_type: "Conv"
    attribute {
      name: "dilations"
      ints: 1
      ints: 1
      type: INTS
    }
    attribute {
      name: "group"
      i: 256
      type: INT
    }
    attribute {
      name: "kernel_shape"
      ints: 3
      ints: 3
      type: INTS
    }
    attribute {
      name: "pads"
      ints: 1
      ints: 1
      ints: 1
      ints: 1
      type: INTS
    }
    attribute {
      name: "strides"
      ints: 1
      ints: 1
      type: INTS
    }
  }
  node {
    input: "471"
    input: "backbone2.5.convs.1.weight"
    input: "backbone2.5.convs.1.bias"
    output: "472"
    name: "Conv_226"
    op_type: "Conv"
    attribute {
      name: "dilations"
      ints: 1
      ints: 1
      type: INTS
    }
    attribute {
      name: "group"
      i: 1
      type: INT
    }
    attribute {
      name: "kernel_shape"
      ints: 1
      ints: 1
      type: INTS
    }
    attribute {
      name: "pads"
      ints: 0
      ints: 0
      ints: 0
      ints: 0
      type: INTS
    }
    attribute {
      name: "strides"
      ints: 1
      ints: 1
      type: INTS
    }
  }
  node {
    input: "472"
    input: "470"
    output: "473"
    name: "Add_227"
    op_type: "Add"
  }
  node {
    input: "473"
    output: "474"
    name: "Relu_228"
    op_type: "Relu"
  }
  node {
    input: "474"
    input: "backbone2.6.convs.0.weight"
    input: "backbone2.6.convs.0.bias"
    output: "475"
    name: "Conv_229"
    op_type: "Conv"
    attribute {
      name: "dilations"
      ints: 1
      ints: 1
      type: INTS
    }
    attribute {
      name: "group"
      i: 256
      type: INT
    }
    attribute {
      name: "kernel_shape"
      ints: 3
      ints: 3
      type: INTS
    }
    attribute {
      name: "pads"
      ints: 1
      ints: 1
      ints: 1
      ints: 1
      type: INTS
    }
    attribute {
      name: "strides"
      ints: 1
      ints: 1
      type: INTS
    }
  }
  node {
    input: "475"
    input: "backbone2.6.convs.1.weight"
    input: "backbone2.6.convs.1.bias"
    output: "476"
    name: "Conv_230"
    op_type: "Conv"
    attribute {
      name: "dilations"
      ints: 1
      ints: 1
      type: INTS
    }
    attribute {
      name: "group"
      i: 1
      type: INT
    }
    attribute {
      name: "kernel_shape"
      ints: 1
      ints: 1
      type: INTS
    }
    attribute {
      name: "pads"
      ints: 0
      ints: 0
      ints: 0
      ints: 0
      type: INTS
    }
    attribute {
      name: "strides"
      ints: 1
      ints: 1
      type: INTS
    }
  }
  node {
    input: "476"
    input: "474"
    output: "477"
    name: "Add_231"
    op_type: "Add"
  }
  node {
    input: "477"
    output: "478"
    name: "Relu_232"
    op_type: "Relu"
  }
  node {
    input: "478"
    input: "backbone2.7.convs.0.weight"
    input: "backbone2.7.convs.0.bias"
    output: "479"
    name: "Conv_233"
    op_type: "Conv"
    attribute {
      name: "dilations"
      ints: 1
      ints: 1
      type: INTS
    }
    attribute {
      name: "group"
      i: 256
      type: INT
    }
    attribute {
      name: "kernel_shape"
      ints: 3
      ints: 3
      type: INTS
    }
    attribute {
      name: "pads"
      ints: 1
      ints: 1
      ints: 1
      ints: 1
      type: INTS
    }
    attribute {
      name: "strides"
      ints: 1
      ints: 1
      type: INTS
    }
  }
  node {
    input: "479"
    input: "backbone2.7.convs.1.weight"
    input: "backbone2.7.convs.1.bias"
    output: "480"
    name: "Conv_234"
    op_type: "Conv"
    attribute {
      name: "dilations"
      ints: 1
      ints: 1
      type: INTS
    }
    attribute {
      name: "group"
      i: 1
      type: INT
    }
    attribute {
      name: "kernel_shape"
      ints: 1
      ints: 1
      type: INTS
    }
    attribute {
      name: "pads"
      ints: 0
      ints: 0
      ints: 0
      ints: 0
      type: INTS
    }
    attribute {
      name: "strides"
      ints: 1
      ints: 1
      type: INTS
    }
  }
  node {
    input: "480"
    input: "478"
    output: "481"
    name: "Add_235"
    op_type: "Add"
  }
  node {
    input: "481"
    output: "482"
    name: "Relu_236"
    op_type: "Relu"
  }
  node {
    input: "648"
    output: "492"
    name: "ConstantOfShape_237"
    op_type: "ConstantOfShape"
    attribute {
      name: "value"
      t {
        dims: 1
        data_type: 7
        raw_data: "\000\000\000\000\000\000\000\000"
      }
      type: TENSOR
    }
  }
  node {
    input: "649"
    input: "492"
    output: "493"
    name: "Concat_238"
    op_type: "Concat"
    attribute {
      name: "axis"
      i: 0
      type: INT
    }
  }
  node {
    output: "494"
    name: "Constant_239"
    op_type: "Constant"
    attribute {
      name: "value"
      t {
        dims: 2
        data_type: 7
      }
      type: TENSOR
    }
  }
  node {
    input: "493"
    input: "494"
    output: "495"
    name: "Reshape_240"
    op_type: "Reshape"
  }
  node {
    output: "496"
    name: "Constant_241"
    op_type: "Constant"
    attribute {
      name: "value"
      t {
        dims: 1
        data_type: 7
      }
      type: TENSOR
    }
  }
  node {
    output: "497"
    name: "Constant_242"
    op_type: "Constant"
    attribute {
      name: "value"
      t {
        dims: 1
        data_type: 7
      }
      type: TENSOR
    }
  }
  node {
    output: "498"
    name: "Constant_243"
    op_type: "Constant"
    attribute {
      name: "value"
      t {
        dims: 1
        data_type: 7
      }
      type: TENSOR
    }
  }
  node {
    output: "499"
    name: "Constant_244"
    op_type: "Constant"
    attribute {
      name: "value"
      t {
        dims: 1
        data_type: 7
      }
      type: TENSOR
    }
  }
  node {
    input: "495"
    input: "497"
    input: "498"
    input: "496"
    input: "499"
    output: "500"
    name: "Slice_245"
    op_type: "Slice"
  }
  node {
    input: "500"
    output: "501"
    name: "Transpose_246"
    op_type: "Transpose"
    attribute {
      name: "perm"
      ints: 1
      ints: 0
      type: INTS
    }
  }
  node {
    output: "502"
    name: "Constant_247"
    op_type: "Constant"
    attribute {
      name: "value"
      t {
        dims: 1
        data_type: 7
      }
      type: TENSOR
    }
  }
  node {
    input: "501"
    input: "502"
    output: "503"
    name: "Reshape_248"
    op_type: "Reshape"
  }
  node {
    input: "503"
    output: "504"
    name: "Cast_249"
    op_type: "Cast"
    attribute {
      name: "to"
      i: 7
      type: INT
    }
  }
  node {
    output: "505"
    name: "Constant_250"
    op_type: "Constant"
    attribute {
      name: "value"
      t {
        data_type: 1
      }
      type: TENSOR
    }
  }
  node {
    input: "482"
    input: "504"
    input: "505"
    output: "506"
    name: "Pad_251"
    op_type: "Pad"
    attribute {
      name: "mode"
      s: "constant"
      type: STRING
    }
  }
  node {
    input: "482"
    output: "507"
    name: "MaxPool_252"
    op_type: "MaxPool"
    attribute {
      name: "ceil_mode"
      i: 0
      type: INT
    }
    attribute {
      name: "kernel_shape"
      ints: 2
      ints: 2
      type: INTS
    }
    attribute {
      name: "pads"
      ints: 0
      ints: 0
      ints: 0
      ints: 0
      type: INTS
    }
    attribute {
      name: "strides"
      ints: 2
      ints: 2
      type: INTS
    }
  }
  node {
    input: "506"
    input: "backbone3.0.convs.0.weight"
    input: "backbone3.0.convs.0.bias"
    output: "508"
    name: "Conv_253"
    op_type: "Conv"
    attribute {
      name: "dilations"
      ints: 1
      ints: 1
      type: INTS
    }
    attribute {
      name: "group"
      i: 256
      type: INT
    }
    attribute {
      name: "kernel_shape"
      ints: 3
      ints: 3
      type: INTS
    }
    attribute {
      name: "pads"
      ints: 0
      ints: 0
      ints: 0
      ints: 0
      type: INTS
    }
    attribute {
      name: "strides"
      ints: 2
      ints: 2
      type: INTS
    }
  }
  node {
    input: "508"
    input: "backbone3.0.convs.1.weight"
    input: "backbone3.0.convs.1.bias"
    output: "509"
    name: "Conv_254"
    op_type: "Conv"
    attribute {
      name: "dilations"
      ints: 1
      ints: 1
      type: INTS
    }
    attribute {
      name: "group"
      i: 1
      type: INT
    }
    attribute {
      name: "kernel_shape"
      ints: 1
      ints: 1
      type: INTS
    }
    attribute {
      name: "pads"
      ints: 0
      ints: 0
      ints: 0
      ints: 0
      type: INTS
    }
    attribute {
      name: "strides"
      ints: 1
      ints: 1
      type: INTS
    }
  }
  node {
    input: "509"
    input: "507"
    output: "510"
    name: "Add_255"
    op_type: "Add"
  }
  node {
    input: "510"
    output: "511"
    name: "Relu_256"
    op_type: "Relu"
  }
  node {
    input: "511"
    input: "backbone3.1.convs.0.weight"
    input: "backbone3.1.convs.0.bias"
    output: "512"
    name: "Conv_257"
    op_type: "Conv"
    attribute {
      name: "dilations"
      ints: 1
      ints: 1
      type: INTS
    }
    attribute {
      name: "group"
      i: 256
      type: INT
    }
    attribute {
      name: "kernel_shape"
      ints: 3
      ints: 3
      type: INTS
    }
    attribute {
      name: "pads"
      ints: 1
      ints: 1
      ints: 1
      ints: 1
      type: INTS
    }
    attribute {
      name: "strides"
      ints: 1
      ints: 1
      type: INTS
    }
  }
  node {
    input: "512"
    input: "backbone3.1.convs.1.weight"
    input: "backbone3.1.convs.1.bias"
    output: "513"
    name: "Conv_258"
    op_type: "Conv"
    attribute {
      name: "dilations"
      ints: 1
      ints: 1
      type: INTS
    }
    attribute {
      name: "group"
      i: 1
      type: INT
    }
    attribute {
      name: "kernel_shape"
      ints: 1
      ints: 1
      type: INTS
    }
    attribute {
      name: "pads"
      ints: 0
      ints: 0
      ints: 0
      ints: 0
      type: INTS
    }
    attribute {
      name: "strides"
      ints: 1
      ints: 1
      type: INTS
    }
  }
  node {
    input: "513"
    input: "511"
    output: "514"
    name: "Add_259"
    op_type: "Add"
  }
  node {
    input: "514"
    output: "515"
    name: "Relu_260"
    op_type: "Relu"
  }
  node {
    input: "515"
    input: "backbone3.2.convs.0.weight"
    input: "backbone3.2.convs.0.bias"
    output: "516"
    name: "Conv_261"
    op_type: "Conv"
    attribute {
      name: "dilations"
      ints: 1
      ints: 1
      type: INTS
    }
    attribute {
      name: "group"
      i: 256
      type: INT
    }
    attribute {
      name: "kernel_shape"
      ints: 3
      ints: 3
      type: INTS
    }
    attribute {
      name: "pads"
      ints: 1
      ints: 1
      ints: 1
      ints: 1
      type: INTS
    }
    attribute {
      name: "strides"
      ints: 1
      ints: 1
      type: INTS
    }
  }
  node {
    input: "516"
    input: "backbone3.2.convs.1.weight"
    input: "backbone3.2.convs.1.bias"
    output: "517"
    name: "Conv_262"
    op_type: "Conv"
    attribute {
      name: "dilations"
      ints: 1
      ints: 1
      type: INTS
    }
    attribute {
      name: "group"
      i: 1
      type: INT
    }
    attribute {
      name: "kernel_shape"
      ints: 1
      ints: 1
      type: INTS
    }
    attribute {
      name: "pads"
      ints: 0
      ints: 0
      ints: 0
      ints: 0
      type: INTS
    }
    attribute {
      name: "strides"
      ints: 1
      ints: 1
      type: INTS
    }
  }
  node {
    input: "517"
    input: "515"
    output: "518"
    name: "Add_263"
    op_type: "Add"
  }
  node {
    input: "518"
    output: "519"
    name: "Relu_264"
    op_type: "Relu"
  }
  node {
    input: "519"
    input: "backbone3.3.convs.0.weight"
    input: "backbone3.3.convs.0.bias"
    output: "520"
    name: "Conv_265"
    op_type: "Conv"
    attribute {
      name: "dilations"
      ints: 1
      ints: 1
      type: INTS
    }
    attribute {
      name: "group"
      i: 256
      type: INT
    }
    attribute {
      name: "kernel_shape"
      ints: 3
      ints: 3
      type: INTS
    }
    attribute {
      name: "pads"
      ints: 1
      ints: 1
      ints: 1
      ints: 1
      type: INTS
    }
    attribute {
      name: "strides"
      ints: 1
      ints: 1
      type: INTS
    }
  }
  node {
    input: "520"
    input: "backbone3.3.convs.1.weight"
    input: "backbone3.3.convs.1.bias"
    output: "521"
    name: "Conv_266"
    op_type: "Conv"
    attribute {
      name: "dilations"
      ints: 1
      ints: 1
      type: INTS
    }
    attribute {
      name: "group"
      i: 1
      type: INT
    }
    attribute {
      name: "kernel_shape"
      ints: 1
      ints: 1
      type: INTS
    }
    attribute {
      name: "pads"
      ints: 0
      ints: 0
      ints: 0
      ints: 0
      type: INTS
    }
    attribute {
      name: "strides"
      ints: 1
      ints: 1
      type: INTS
    }
  }
  node {
    input: "521"
    input: "519"
    output: "522"
    name: "Add_267"
    op_type: "Add"
  }
  node {
    input: "522"
    output: "523"
    name: "Relu_268"
    op_type: "Relu"
  }
  node {
    input: "523"
    input: "backbone3.4.convs.0.weight"
    input: "backbone3.4.convs.0.bias"
    output: "524"
    name: "Conv_269"
    op_type: "Conv"
    attribute {
      name: "dilations"
      ints: 1
      ints: 1
      type: INTS
    }
    attribute {
      name: "group"
      i: 256
      type: INT
    }
    attribute {
      name: "kernel_shape"
      ints: 3
      ints: 3
      type: INTS
    }
    attribute {
      name: "pads"
      ints: 1
      ints: 1
      ints: 1
      ints: 1
      type: INTS
    }
    attribute {
      name: "strides"
      ints: 1
      ints: 1
      type: INTS
    }
  }
  node {
    input: "524"
    input: "backbone3.4.convs.1.weight"
    input: "backbone3.4.convs.1.bias"
    output: "525"
    name: "Conv_270"
    op_type: "Conv"
    attribute {
      name: "dilations"
      ints: 1
      ints: 1
      type: INTS
    }
    attribute {
      name: "group"
      i: 1
      type: INT
    }
    attribute {
      name: "kernel_shape"
      ints: 1
      ints: 1
      type: INTS
    }
    attribute {
      name: "pads"
      ints: 0
      ints: 0
      ints: 0
      ints: 0
      type: INTS
    }
    attribute {
      name: "strides"
      ints: 1
      ints: 1
      type: INTS
    }
  }
  node {
    input: "525"
    input: "523"
    output: "526"
    name: "Add_271"
    op_type: "Add"
  }
  node {
    input: "526"
    output: "527"
    name: "Relu_272"
    op_type: "Relu"
  }
  node {
    input: "527"
    input: "backbone3.5.convs.0.weight"
    input: "backbone3.5.convs.0.bias"
    output: "528"
    name: "Conv_273"
    op_type: "Conv"
    attribute {
      name: "dilations"
      ints: 1
      ints: 1
      type: INTS
    }
    attribute {
      name: "group"
      i: 256
      type: INT
    }
    attribute {
      name: "kernel_shape"
      ints: 3
      ints: 3
      type: INTS
    }
    attribute {
      name: "pads"
      ints: 1
      ints: 1
      ints: 1
      ints: 1
      type: INTS
    }
    attribute {
      name: "strides"
      ints: 1
      ints: 1
      type: INTS
    }
  }
  node {
    input: "528"
    input: "backbone3.5.convs.1.weight"
    input: "backbone3.5.convs.1.bias"
    output: "529"
    name: "Conv_274"
    op_type: "Conv"
    attribute {
      name: "dilations"
      ints: 1
      ints: 1
      type: INTS
    }
    attribute {
      name: "group"
      i: 1
      type: INT
    }
    attribute {
      name: "kernel_shape"
      ints: 1
      ints: 1
      type: INTS
    }
    attribute {
      name: "pads"
      ints: 0
      ints: 0
      ints: 0
      ints: 0
      type: INTS
    }
    attribute {
      name: "strides"
      ints: 1
      ints: 1
      type: INTS
    }
  }
  node {
    input: "529"
    input: "527"
    output: "530"
    name: "Add_275"
    op_type: "Add"
  }
  node {
    input: "530"
    output: "531"
    name: "Relu_276"
    op_type: "Relu"
  }
  node {
    input: "531"
    input: "backbone3.6.convs.0.weight"
    input: "backbone3.6.convs.0.bias"
    output: "532"
    name: "Conv_277"
    op_type: "Conv"
    attribute {
      name: "dilations"
      ints: 1
      ints: 1
      type: INTS
    }
    attribute {
      name: "group"
      i: 256
      type: INT
    }
    attribute {
      name: "kernel_shape"
      ints: 3
      ints: 3
      type: INTS
    }
    attribute {
      name: "pads"
      ints: 1
      ints: 1
      ints: 1
      ints: 1
      type: INTS
    }
    attribute {
      name: "strides"
      ints: 1
      ints: 1
      type: INTS
    }
  }
  node {
    input: "532"
    input: "backbone3.6.convs.1.weight"
    input: "backbone3.6.convs.1.bias"
    output: "533"
    name: "Conv_278"
    op_type: "Conv"
    attribute {
      name: "dilations"
      ints: 1
      ints: 1
      type: INTS
    }
    attribute {
      name: "group"
      i: 1
      type: INT
    }
    attribute {
      name: "kernel_shape"
      ints: 1
      ints: 1
      type: INTS
    }
    attribute {
      name: "pads"
      ints: 0
      ints: 0
      ints: 0
      ints: 0
      type: INTS
    }
    attribute {
      name: "strides"
      ints: 1
      ints: 1
      type: INTS
    }
  }
  node {
    input: "533"
    input: "531"
    output: "534"
    name: "Add_279"
    op_type: "Add"
  }
  node {
    input: "534"
    output: "535"
    name: "Relu_280"
    op_type: "Relu"
  }
  node {
    input: "535"
    input: "backbone3.7.convs.0.weight"
    input: "backbone3.7.convs.0.bias"
    output: "536"
    name: "Conv_281"
    op_type: "Conv"
    attribute {
      name: "dilations"
      ints: 1
      ints: 1
      type: INTS
    }
    attribute {
      name: "group"
      i: 256
      type: INT
    }
    attribute {
      name: "kernel_shape"
      ints: 3
      ints: 3
      type: INTS
    }
    attribute {
      name: "pads"
      ints: 1
      ints: 1
      ints: 1
      ints: 1
      type: INTS
    }
    attribute {
      name: "strides"
      ints: 1
      ints: 1
      type: INTS
    }
  }
  node {
    input: "536"
    input: "backbone3.7.convs.1.weight"
    input: "backbone3.7.convs.1.bias"
    output: "537"
    name: "Conv_282"
    op_type: "Conv"
    attribute {
      name: "dilations"
      ints: 1
      ints: 1
      type: INTS
    }
    attribute {
      name: "group"
      i: 1
      type: INT
    }
    attribute {
      name: "kernel_shape"
      ints: 1
      ints: 1
      type: INTS
    }
    attribute {
      name: "pads"
      ints: 0
      ints: 0
      ints: 0
      ints: 0
      type: INTS
    }
    attribute {
      name: "strides"
      ints: 1
      ints: 1
      type: INTS
    }
  }
  node {
    input: "537"
    input: "535"
    output: "538"
    name: "Add_283"
    op_type: "Add"
  }
  node {
    input: "538"
    output: "539"
    name: "Relu_284"
    op_type: "Relu"
  }
  node {
    input: "539"
    input: "conv_transpose1.weight"
    input: "conv_transpose1.bias"
    output: "540"
    name: "ConvTranspose_285"
    op_type: "ConvTranspose"
    attribute {
      name: "dilations"
      ints: 1
      ints: 1
      type: INTS
    }
    attribute {
      name: "group"
      i: 1
      type: INT
    }
    attribute {
      name: "kernel_shape"
      ints: 2
      ints: 2
      type: INTS
    }
    attribute {
      name: "pads"
      ints: 0
      ints: 0
      ints: 0
      ints: 0
      type: INTS
    }
    attribute {
      name: "strides"
      ints: 2
      ints: 2
      type: INTS
    }
  }
  node {
    input: "540"
    output: "541"
    name: "Relu_286"
    op_type: "Relu"
  }
  node {
    input: "482"
    input: "541"
    output: "542"
    name: "Add_287"
    op_type: "Add"
  }
  node {
    input: "542"
    input: "blaze1.convs.0.weight"
    input: "blaze1.convs.0.bias"
    output: "543"
    name: "Conv_288"
    op_type: "Conv"
    attribute {
      name: "dilations"
      ints: 1
      ints: 1
      type: INTS
    }
    attribute {
      name: "group"
      i: 256
      type: INT
    }
    attribute {
      name: "kernel_shape"
      ints: 3
      ints: 3
      type: INTS
    }
    attribute {
      name: "pads"
      ints: 1
      ints: 1
      ints: 1
      ints: 1
      type: INTS
    }
    attribute {
      name: "strides"
      ints: 1
      ints: 1
      type: INTS
    }
  }
  node {
    input: "543"
    input: "blaze1.convs.1.weight"
    input: "blaze1.convs.1.bias"
    output: "544"
    name: "Conv_289"
    op_type: "Conv"
    attribute {
      name: "dilations"
      ints: 1
      ints: 1
      type: INTS
    }
    attribute {
      name: "group"
      i: 1
      type: INT
    }
    attribute {
      name: "kernel_shape"
      ints: 1
      ints: 1
      type: INTS
    }
    attribute {
      name: "pads"
      ints: 0
      ints: 0
      ints: 0
      ints: 0
      type: INTS
    }
    attribute {
      name: "strides"
      ints: 1
      ints: 1
      type: INTS
    }
  }
  node {
    input: "544"
    input: "542"
    output: "545"
    name: "Add_290"
    op_type: "Add"
  }
  node {
    input: "545"
    output: "546"
    name: "Relu_291"
    op_type: "Relu"
  }
  node {
    input: "546"
    input: "conv_transpose2.weight"
    input: "conv_transpose2.bias"
    output: "547"
    name: "ConvTranspose_292"
    op_type: "ConvTranspose"
    attribute {
      name: "dilations"
      ints: 1
      ints: 1
      type: INTS
    }
    attribute {
      name: "group"
      i: 1
      type: INT
    }
    attribute {
      name: "kernel_shape"
      ints: 2
      ints: 2
      type: INTS
    }
    attribute {
      name: "pads"
      ints: 0
      ints: 0
      ints: 0
      ints: 0
      type: INTS
    }
    attribute {
      name: "strides"
      ints: 2
      ints: 2
      type: INTS
    }
  }
  node {
    input: "547"
    output: "548"
    name: "Relu_293"
    op_type: "Relu"
  }
  node {
    input: "401"
    input: "548"
    output: "549"
    name: "Add_294"
    op_type: "Add"
  }
  node {
    input: "549"
    input: "blaze2.convs.0.weight"
    input: "blaze2.convs.0.bias"
    output: "550"
    name: "Conv_295"
    op_type: "Conv"
    attribute {
      name: "dilations"
      ints: 1
      ints: 1
      type: INTS
    }
    attribute {
      name: "group"
      i: 128
      type: INT
    }
    attribute {
      name: "kernel_shape"
      ints: 3
      ints: 3
      type: INTS
    }
    attribute {
      name: "pads"
      ints: 1
      ints: 1
      ints: 1
      ints: 1
      type: INTS
    }
    attribute {
      name: "strides"
      ints: 1
      ints: 1
      type: INTS
    }
  }
  node {
    input: "550"
    input: "blaze2.convs.1.weight"
    input: "blaze2.convs.1.bias"
    output: "551"
    name: "Conv_296"
    op_type: "Conv"
    attribute {
      name: "dilations"
      ints: 1
      ints: 1
      type: INTS
    }
    attribute {
      name: "group"
      i: 1
      type: INT
    }
    attribute {
      name: "kernel_shape"
      ints: 1
      ints: 1
      type: INTS
    }
    attribute {
      name: "pads"
      ints: 0
      ints: 0
      ints: 0
      ints: 0
      type: INTS
    }
    attribute {
      name: "strides"
      ints: 1
      ints: 1
      type: INTS
    }
  }
  node {
    input: "551"
    input: "549"
    output: "552"
    name: "Add_297"
    op_type: "Add"
  }
  node {
    input: "552"
    output: "553"
    name: "Relu_298"
    op_type: "Relu"
  }
  node {
    input: "539"
    input: "classifier_8.weight"
    input: "classifier_8.bias"
    output: "554"
    name: "Conv_299"
    op_type: "Conv"
    attribute {
      name: "dilations"
      ints: 1
      ints: 1
      type: INTS
    }
    attribute {
      name: "group"
      i: 1
      type: INT
    }
    attribute {
      name: "kernel_shape"
      ints: 1
      ints: 1
      type: INTS
    }
    attribute {
      name: "pads"
      ints: 0
      ints: 0
      ints: 0
      ints: 0
      type: INTS
    }
    attribute {
      name: "strides"
      ints: 1
      ints: 1
      type: INTS
    }
  }
  node {
    input: "554"
    output: "555"
    name: "Transpose_300"
    op_type: "Transpose"
    attribute {
      name: "perm"
      ints: 0
      ints: 2
      ints: 3
      ints: 1
      type: INTS
    }
  }
  node {
    input: "185"
    output: "558"
    name: "Unsqueeze_301"
    op_type: "Unsqueeze"
    attribute {
      name: "axes"
      ints: 0
      type: INTS
    }
  }
  node {
    input: "558"
    input: "650"
    input: "651"
    output: "561"
    name: "Concat_302"
    op_type: "Concat"
    attribute {
      name: "axis"
      i: 0
      type: INT
    }
  }
  node {
    input: "555"
    input: "561"
    output: "562"
    name: "Reshape_303"
    op_type: "Reshape"
  }
  node {
    input: "546"
    input: "classifier_16.weight"
    input: "classifier_16.bias"
    output: "563"
    name: "Conv_304"
    op_type: "Conv"
    attribute {
      name: "dilations"
      ints: 1
      ints: 1
      type: INTS
    }
    attribute {
      name: "group"
      i: 1
      type: INT
    }
    attribute {
      name: "kernel_shape"
      ints: 1
      ints: 1
      type: INTS
    }
    attribute {
      name: "pads"
      ints: 0
      ints: 0
      ints: 0
      ints: 0
      type: INTS
    }
    attribute {
      name: "strides"
      ints: 1
      ints: 1
      type: INTS
    }
  }
  node {
    input: "563"
    output: "564"
    name: "Transpose_305"
    op_type: "Transpose"
    attribute {
      name: "perm"
      ints: 0
      ints: 2
      ints: 3
      ints: 1
      type: INTS
    }
  }
  node {
    input: "185"
    output: "567"
    name: "Unsqueeze_306"
    op_type: "Unsqueeze"
    attribute {
      name: "axes"
      ints: 0
      type: INTS
    }
  }
  node {
    input: "567"
    input: "652"
    input: "653"
    output: "570"
    name: "Concat_307"
    op_type: "Concat"
    attribute {
      name: "axis"
      i: 0
      type: INT
    }
  }
  node {
    input: "564"
    input: "570"
    output: "571"
    name: "Reshape_308"
    op_type: "Reshape"
  }
  node {
    input: "553"
    input: "classifier_32.weight"
    input: "classifier_32.bias"
    output: "572"
    name: "Conv_309"
    op_type: "Conv"
    attribute {
      name: "dilations"
      ints: 1
      ints: 1
      type: INTS
    }
    attribute {
      name: "group"
      i: 1
      type: INT
    }
    attribute {
      name: "kernel_shape"
      ints: 1
      ints: 1
      type: INTS
    }
    attribute {
      name: "pads"
      ints: 0
      ints: 0
      ints: 0
      ints: 0
      type: INTS
    }
    attribute {
      name: "strides"
      ints: 1
      ints: 1
      type: INTS
    }
  }
  node {
    input: "572"
    output: "573"
    name: "Transpose_310"
    op_type: "Transpose"
    attribute {
      name: "perm"
      ints: 0
      ints: 2
      ints: 3
      ints: 1
      type: INTS
    }
  }
  node {
    input: "185"
    output: "576"
    name: "Unsqueeze_311"
    op_type: "Unsqueeze"
    attribute {
      name: "axes"
      ints: 0
      type: INTS
    }
  }
  node {
    input: "576"
    input: "654"
    input: "655"
    output: "579"
    name: "Concat_312"
    op_type: "Concat"
    attribute {
      name: "axis"
      i: 0
      type: INT
    }
  }
  node {
    input: "573"
    input: "579"
    output: "580"
    name: "Reshape_313"
    op_type: "Reshape"
  }
  node {
    input: "580"
    input: "571"
    input: "562"
    output: "classificators"
    name: "Concat_314"
    op_type: "Concat"
    attribute {
      name: "axis"
      i: 1
      type: INT
    }
  }
  node {
    input: "539"
    input: "regressor_8.weight"
    input: "regressor_8.bias"
    output: "582"
    name: "Conv_315"
    op_type: "Conv"
    attribute {
      name: "dilations"
      ints: 1
      ints: 1
      type: INTS
    }
    attribute {
      name: "group"
      i: 1
      type: INT
    }
    attribute {
      name: "kernel_shape"
      ints: 1
      ints: 1
      type: INTS
    }
    attribute {
      name: "pads"
      ints: 0
      ints: 0
      ints: 0
      ints: 0
      type: INTS
    }
    attribute {
      name: "strides"
      ints: 1
      ints: 1
      type: INTS
    }
  }
  node {
    input: "582"
    output: "583"
    name: "Transpose_316"
    op_type: "Transpose"
    attribute {
      name: "perm"
      ints: 0
      ints: 2
      ints: 3
      ints: 1
      type: INTS
    }
  }
  node {
    input: "185"
    output: "586"
    name: "Unsqueeze_317"
    op_type: "Unsqueeze"
    attribute {
      name: "axes"
      ints: 0
      type: INTS
    }
  }
  node {
    input: "586"
    input: "656"
    input: "657"
    output: "589"
    name: "Concat_318"
    op_type: "Concat"
    attribute {
      name: "axis"
      i: 0
      type: INT
    }
  }
  node {
    input: "583"
    input: "589"
    output: "590"
    name: "Reshape_319"
    op_type: "Reshape"
  }
  node {
    input: "546"
    input: "regressor_16.weight"
    input: "regressor_16.bias"
    output: "591"
    name: "Conv_320"
    op_type: "Conv"
    attribute {
      name: "dilations"
      ints: 1
      ints: 1
      type: INTS
    }
    attribute {
      name: "group"
      i: 1
      type: INT
    }
    attribute {
      name: "kernel_shape"
      ints: 1
      ints: 1
      type: INTS
    }
    attribute {
      name: "pads"
      ints: 0
      ints: 0
      ints: 0
      ints: 0
      type: INTS
    }
    attribute {
      name: "strides"
      ints: 1
      ints: 1
      type: INTS
    }
  }
  node {
    input: "591"
    output: "592"
    name: "Transpose_321"
    op_type: "Transpose"
    attribute {
      name: "perm"
      ints: 0
      ints: 2
      ints: 3
      ints: 1
      type: INTS
    }
  }
  node {
    input: "185"
    output: "595"
    name: "Unsqueeze_322"
    op_type: "Unsqueeze"
    attribute {
      name: "axes"
      ints: 0
      type: INTS
    }
  }
  node {
    input: "595"
    input: "658"
    input: "659"
    output: "598"
    name: "Concat_323"
    op_type: "Concat"
    attribute {
      name: "axis"
      i: 0
      type: INT
    }
  }
  node {
    input: "592"
    input: "598"
    output: "599"
    name: "Reshape_324"
    op_type: "Reshape"
  }
  node {
    input: "553"
    input: "regressor_32.weight"
    input: "regressor_32.bias"
    output: "600"
    name: "Conv_325"
    op_type: "Conv"
    attribute {
      name: "dilations"
      ints: 1
      ints: 1
      type: INTS
    }
    attribute {
      name: "group"
      i: 1
      type: INT
    }
    attribute {
      name: "kernel_shape"
      ints: 1
      ints: 1
      type: INTS
    }
    attribute {
      name: "pads"
      ints: 0
      ints: 0
      ints: 0
      ints: 0
      type: INTS
    }
    attribute {
      name: "strides"
      ints: 1
      ints: 1
      type: INTS
    }
  }
  node {
    input: "600"
    output: "601"
    name: "Transpose_326"
    op_type: "Transpose"
    attribute {
      name: "perm"
      ints: 0
      ints: 2
      ints: 3
      ints: 1
      type: INTS
    }
  }
  node {
    input: "185"
    output: "604"
    name: "Unsqueeze_327"
    op_type: "Unsqueeze"
    attribute {
      name: "axes"
      ints: 0
      type: INTS
    }
  }
  node {
    input: "604"
    input: "660"
    input: "661"
    output: "607"
    name: "Concat_328"
    op_type: "Concat"
    attribute {
      name: "axis"
      i: 0
      type: INT
    }
  }
  node {
    input: "601"
    input: "607"
    output: "608"
    name: "Reshape_329"
    op_type: "Reshape"
  }
  node {
    input: "608"
    input: "599"
    input: "590"
    output: "regressors"
    name: "Concat_330"
    op_type: "Concat"
    attribute {
      name: "axis"
      i: 1
      type: INT
    }
  }
  initializer {
      dims: 1
      data_type: 7
      name: "613"
  }
  initializer {
      dims: 4
      data_type: 7
      name: "614"
  }
  initializer {
      dims: 1
      data_type: 7
      name: "618"
  }
  initializer {
      dims: 4
      data_type: 7
      name: "619"
  }
  initializer {
      dims: 1
      data_type: 7
      name: "623"
  }
  initializer {
      dims: 6
      data_type: 7
      name: "624"
  }
  initializer {
      dims: 1
      data_type: 7
      name: "628"
  }
  initializer {
      dims: 4
      data_type: 7
      name: "629"
  }
  initializer {
      dims: 1
      data_type: 7
      name: "633"
  }
  initializer {
      dims: 6
      data_type: 7
      name: "634"
  }
  initializer {
      dims: 1
      data_type: 7
      name: "638"
  }
  initializer {
      dims: 4
      data_type: 7
      name: "639"
  }
  initializer {
      dims: 1
      data_type: 7
      name: "643"
  }
  initializer {
      dims: 6
      data_type: 7
      name: "644"
  }
  initializer {
      dims: 1
      data_type: 7
      name: "648"
  }
  initializer {
      dims: 4
      data_type: 7
      name: "649"
  }
  initializer {
      dims: 1
      data_type: 7
      name: "650"
  }
  initializer {
      dims: 1
      data_type: 7
      name: "651"
  }
  initializer {
      dims: 1
      data_type: 7
      name: "652"
  }
  initializer {
      dims: 1
      data_type: 7
      name: "653"
  }
  initializer {
      dims: 1
      data_type: 7
      name: "654"
  }
  initializer {
      dims: 1
      data_type: 7
      name: "655"
  }
  initializer {
      dims: 1
      data_type: 7
      name: "656"
  }
  initializer {
      dims: 1
      data_type: 7
      name: "657"
  }
  initializer {
      dims: 1
      data_type: 7
      name: "658"
  }
  initializer {
      dims: 1
      data_type: 7
      name: "659"
  }
  initializer {
      dims: 1
      data_type: 7
      name: "660"
  }
  initializer {
      dims: 1
      data_type: 7
      name: "661"
  }
  initializer {
      dims: 32
      data_type: 1
      name: "backbone1.0.bias"
  }
  initializer {
      dims: 32
      dims: 3
      dims: 3
      dims: 3
      data_type: 1
      name: "backbone1.0.weight"
  }
  initializer {
      dims: 64
      data_type: 1
      name: "backbone1.10.convs.0.bias"
  }
  initializer {
      dims: 64
      dims: 1
      dims: 3
      dims: 3
      data_type: 1
      name: "backbone1.10.convs.0.weight"
  }
  initializer {
      dims: 64
      data_type: 1
      name: "backbone1.10.convs.1.bias"
  }
  initializer {
      dims: 64
      dims: 64
      dims: 1
      dims: 1
      data_type: 1
      name: "backbone1.10.convs.1.weight"
  }
  initializer {
      dims: 64
      data_type: 1
      name: "backbone1.11.convs.0.bias"
  }
  initializer {
      dims: 64
      dims: 1
      dims: 3
      dims: 3
      data_type: 1
      name: "backbone1.11.convs.0.weight"
  }
  initializer {
      dims: 64
      data_type: 1
      name: "backbone1.11.convs.1.bias"
  }
  initializer {
      dims: 64
      dims: 64
      dims: 1
      dims: 1
      data_type: 1
      name: "backbone1.11.convs.1.weight"
  }
  initializer {
      dims: 64
      data_type: 1
      name: "backbone1.12.convs.0.bias"
  }
  initializer {
      dims: 64
      dims: 1
      dims: 3
      dims: 3
      data_type: 1
      name: "backbone1.12.convs.0.weight"
  }
  initializer {
      dims: 64
      data_type: 1
      name: "backbone1.12.convs.1.bias"
  }
  initializer {
      dims: 64
      dims: 64
      dims: 1
      dims: 1
      data_type: 1
      name: "backbone1.12.convs.1.weight"
  }
  initializer {
      dims: 64
      data_type: 1
      name: "backbone1.13.convs.0.bias"
  }
  initializer {
      dims: 64
      dims: 1
      dims: 3
      dims: 3
      data_type: 1
      name: "backbone1.13.convs.0.weight"
  }
  initializer {
      dims: 64
      data_type: 1
      name: "backbone1.13.convs.1.bias"
  }
  initializer {
      dims: 64
      dims: 64
      dims: 1
      dims: 1
      data_type: 1
      name: "backbone1.13.convs.1.weight"
  }
  initializer {
      dims: 64
      data_type: 1
      name: "backbone1.14.convs.0.bias"
  }
  initializer {
      dims: 64
      dims: 1
      dims: 3
      dims: 3
      data_type: 1
      name: "backbone1.14.convs.0.weight"
  }
  initializer {
      dims: 64
      data_type: 1
      name: "backbone1.14.convs.1.bias"
  }
  initializer {
      dims: 64
      dims: 64
      dims: 1
      dims: 1
      data_type: 1
      name: "backbone1.14.convs.1.weight"
  }
  initializer {
      dims: 64
      data_type: 1
      name: "backbone1.15.convs.0.bias"
  }
  initializer {
      dims: 64
      dims: 1
      dims: 3
      dims: 3
      data_type: 1
      name: "backbone1.15.convs.0.weight"
  }
  initializer {
      dims: 64
      data_type: 1
      name: "backbone1.15.convs.1.bias"
  }
  initializer {
      dims: 64
      dims: 64
      dims: 1
      dims: 1
      data_type: 1
      name: "backbone1.15.convs.1.weight"
  }
  initializer {
      dims: 64
      data_type: 1
      name: "backbone1.16.convs.0.bias"
  }
  initializer {
      dims: 64
      dims: 1
      dims: 3
      dims: 3
      data_type: 1
      name: "backbone1.16.convs.0.weight"
  }
  initializer {
      dims: 64
      data_type: 1
      name: "backbone1.16.convs.1.bias"
  }
  initializer {
      dims: 64
      dims: 64
      dims: 1
      dims: 1
      data_type: 1
      name: "backbone1.16.convs.1.weight"
  }
  initializer {
      dims: 64
      data_type: 1
      name: "backbone1.17.convs.0.bias"
  }
  initializer {
      dims: 64
      dims: 1
      dims: 3
      dims: 3
      data_type: 1
      name: "backbone1.17.convs.0.weight"
  }
  initializer {
      dims: 128
      data_type: 1
      name: "backbone1.17.convs.1.bias"
  }
  initializer {
      dims: 128
      dims: 64
      dims: 1
      dims: 1
      data_type: 1
      name: "backbone1.17.convs.1.weight"
  }
  initializer {
      dims: 128
      data_type: 1
      name: "backbone1.18.convs.0.bias"
  }
  initializer {
      dims: 128
      dims: 1
      dims: 3
      dims: 3
      data_type: 1
      name: "backbone1.18.convs.0.weight"
  }
  initializer {
      dims: 128
      data_type: 1
      name: "backbone1.18.convs.1.bias"
  }
  initializer {
      dims: 128
      dims: 128
      dims: 1
      dims: 1
      data_type: 1
      name: "backbone1.18.convs.1.weight"
  }
  initializer {
      dims: 128
      data_type: 1
      name: "backbone1.19.convs.0.bias"
  }
  initializer {
      dims: 128
      dims: 1
      dims: 3
      dims: 3
      data_type: 1
      name: "backbone1.19.convs.0.weight"
  }
  initializer {
      dims: 128
      data_type: 1
      name: "backbone1.19.convs.1.bias"
  }
  initializer {
      dims: 128
      dims: 128
      dims: 1
      dims: 1
      data_type: 1
      name: "backbone1.19.convs.1.weight"
  }
  initializer {
      dims: 32
      data_type: 1
      name: "backbone1.2.convs.0.bias"
  }
  initializer {
      dims: 32
      dims: 1
      dims: 3
      dims: 3
      data_type: 1
      name: "backbone1.2.convs.0.weight"
  }
  initializer {
      dims: 32
      data_type: 1
      name: "backbone1.2.convs.1.bias"
  }
  initializer {
      dims: 32
      dims: 32
      dims: 1
      dims: 1
      data_type: 1
      name: "backbone1.2.convs.1.weight"
  }
  initializer {
      dims: 128
      data_type: 1
      name: "backbone1.20.convs.0.bias"
  }
  initializer {
      dims: 128
      dims: 1
      dims: 3
      dims: 3
      data_type: 1
      name: "backbone1.20.convs.0.weight"
  }
  initializer {
      dims: 128
      data_type: 1
      name: "backbone1.20.convs.1.bias"
  }
  initializer {
      dims: 128
      dims: 128
      dims: 1
      dims: 1
      data_type: 1
      name: "backbone1.20.convs.1.weight"
  }
  initializer {
      dims: 128
      data_type: 1
      name: "backbone1.21.convs.0.bias"
  }
  initializer {
      dims: 128
      dims: 1
      dims: 3
      dims: 3
      data_type: 1
      name: "backbone1.21.convs.0.weight"
  }
  initializer {
      dims: 128
      data_type: 1
      name: "backbone1.21.convs.1.bias"
  }
  initializer {
      dims: 128
      dims: 128
      dims: 1
      dims: 1
      data_type: 1
      name: "backbone1.21.convs.1.weight"
  }
  initializer {
      dims: 128
      data_type: 1
      name: "backbone1.22.convs.0.bias"
  }
  initializer {
      dims: 128
      dims: 1
      dims: 3
      dims: 3
      data_type: 1
      name: "backbone1.22.convs.0.weight"
  }
  initializer {
      dims: 128
      data_type: 1
      name: "backbone1.22.convs.1.bias"
  }
  initializer {
      dims: 128
      dims: 128
      dims: 1
      dims: 1
      data_type: 1
      name: "backbone1.22.convs.1.weight"
  }
  initializer {
      dims: 128
      data_type: 1
      name: "backbone1.23.convs.0.bias"
  }
  initializer {
      dims: 128
      dims: 1
      dims: 3
      dims: 3
      data_type: 1
      name: "backbone1.23.convs.0.weight"
  }
  initializer {
      dims: 128
      data_type: 1
      name: "backbone1.23.convs.1.bias"
  }
  initializer {
      dims: 128
      dims: 128
      dims: 1
      dims: 1
      data_type: 1
      name: "backbone1.23.convs.1.weight"
  }
  initializer {
      dims: 128
      data_type: 1
      name: "backbone1.24.convs.0.bias"
  }
  initializer {
      dims: 128
      dims: 1
      dims: 3
      dims: 3
      data_type: 1
      name: "backbone1.24.convs.0.weight"
  }
  initializer {
      dims: 128
      data_type: 1
      name: "backbone1.24.convs.1.bias"
  }
  initializer {
      dims: 128
      dims: 128
      dims: 1
      dims: 1
      data_type: 1
      name: "backbone1.24.convs.1.weight"
  }
  initializer {
      dims: 32
      data_type: 1
      name: "backbone1.3.convs.0.bias"
  }
  initializer {
      dims: 32
      dims: 1
      dims: 3
      dims: 3
      data_type: 1
      name: "backbone1.3.convs.0.weight"
  }
  initializer {
      dims: 32
      data_type: 1
      name: "backbone1.3.convs.1.bias"
  }
  initializer {
      dims: 32
      dims: 32
      dims: 1
      dims: 1
      data_type: 1
      name: "backbone1.3.convs.1.weight"
  }
  initializer {
      dims: 32
      data_type: 1
      name: "backbone1.4.convs.0.bias"
  }
  initializer {
      dims: 32
      dims: 1
      dims: 3
      dims: 3
      data_type: 1
      name: "backbone1.4.convs.0.weight"
  }
  initializer {
      dims: 32
      data_type: 1
      name: "backbone1.4.convs.1.bias"
  }
  initializer {
      dims: 32
      dims: 32
      dims: 1
      dims: 1
      data_type: 1
      name: "backbone1.4.convs.1.weight"
  }
  initializer {
      dims: 32
      data_type: 1
      name: "backbone1.5.convs.0.bias"
  }
  initializer {
      dims: 32
      dims: 1
      dims: 3
      dims: 3
      data_type: 1
      name: "backbone1.5.convs.0.weight"
  }
  initializer {
      dims: 32
      data_type: 1
      name: "backbone1.5.convs.1.bias"
  }
  initializer {
      dims: 32
      dims: 32
      dims: 1
      dims: 1
      data_type: 1
      name: "backbone1.5.convs.1.weight"
  }
  initializer {
      dims: 32
      data_type: 1
      name: "backbone1.6.convs.0.bias"
  }
  initializer {
      dims: 32
      dims: 1
      dims: 3
      dims: 3
      data_type: 1
      name: "backbone1.6.convs.0.weight"
  }
  initializer {
      dims: 32
      data_type: 1
      name: "backbone1.6.convs.1.bias"
  }
  initializer {
      dims: 32
      dims: 32
      dims: 1
      dims: 1
      data_type: 1
      name: "backbone1.6.convs.1.weight"
  }
  initializer {
      dims: 32
      data_type: 1
      name: "backbone1.7.convs.0.bias"
  }
  initializer {
      dims: 32
      dims: 1
      dims: 3
      dims: 3
      data_type: 1
      name: "backbone1.7.convs.0.weight"
  }
  initializer {
      dims: 32
      data_type: 1
      name: "backbone1.7.convs.1.bias"
  }
  initializer {
      dims: 32
      dims: 32
      dims: 1
      dims: 1
      data_type: 1
      name: "backbone1.7.convs.1.weight"
  }
  initializer {
      dims: 32
      data_type: 1
      name: "backbone1.8.convs.0.bias"
  }
  initializer {
      dims: 32
      dims: 1
      dims: 3
      dims: 3
      data_type: 1
      name: "backbone1.8.convs.0.weight"
  }
  initializer {
      dims: 32
      data_type: 1
      name: "backbone1.8.convs.1.bias"
  }
  initializer {
      dims: 32
      dims: 32
      dims: 1
      dims: 1
      data_type: 1
      name: "backbone1.8.convs.1.weight"
  }
  initializer {
      dims: 32
      data_type: 1
      name: "backbone1.9.convs.0.bias"
  }
  initializer {
      dims: 32
      dims: 1
      dims: 3
      dims: 3
      data_type: 1
      name: "backbone1.9.convs.0.weight"
  }
  initializer {
      dims: 64
      data_type: 1
      name: "backbone1.9.convs.1.bias"
  }
  initializer {
      dims: 64
      dims: 32
      dims: 1
      dims: 1
      data_type: 1
      name: "backbone1.9.convs.1.weight"
  }
  initializer {
      dims: 128
      data_type: 1
      name: "backbone2.0.convs.0.bias"
  }
  initializer {
      dims: 128
      dims: 1
      dims: 3
      dims: 3
      data_type: 1
      name: "backbone2.0.convs.0.weight"
  }
  initializer {
      dims: 256
      data_type: 1
      name: "backbone2.0.convs.1.bias"
  }
  initializer {
      dims: 256
      dims: 128
      dims: 1
      dims: 1
      data_type: 1
      name: "backbone2.0.convs.1.weight"
  }
  initializer {
      dims: 256
      data_type: 1
      name: "backbone2.1.convs.0.bias"
  }
  initializer {
      dims: 256
      dims: 1
      dims: 3
      dims: 3
      data_type: 1
      name: "backbone2.1.convs.0.weight"
  }
  initializer {
      dims: 256
      data_type: 1
      name: "backbone2.1.convs.1.bias"
  }
  initializer {
      dims: 256
      dims: 256
      dims: 1
      dims: 1
      data_type: 1
      name: "backbone2.1.convs.1.weight"
  }
  initializer {
      dims: 256
      data_type: 1
      name: "backbone2.2.convs.0.bias"
  }
  initializer {
      dims: 256
      dims: 1
      dims: 3
      dims: 3
      data_type: 1
      name: "backbone2.2.convs.0.weight"
  }
  initializer {
      dims: 256
      data_type: 1
      name: "backbone2.2.convs.1.bias"
  }
  initializer {
      dims: 256
      dims: 256
      dims: 1
      dims: 1
      data_type: 1
      name: "backbone2.2.convs.1.weight"
  }
  initializer {
      dims: 256
      data_type: 1
      name: "backbone2.3.convs.0.bias"
  }
  initializer {
      dims: 256
      dims: 1
      dims: 3
      dims: 3
      data_type: 1
      name: "backbone2.3.convs.0.weight"
  }
  initializer {
      dims: 256
      data_type: 1
      name: "backbone2.3.convs.1.bias"
  }
  initializer {
      dims: 256
      dims: 256
      dims: 1
      dims: 1
      data_type: 1
      name: "backbone2.3.convs.1.weight"
  }
  initializer {
      dims: 256
      data_type: 1
      name: "backbone2.4.convs.0.bias"
  }
  initializer {
      dims: 256
      dims: 1
      dims: 3
      dims: 3
      data_type: 1
      name: "backbone2.4.convs.0.weight"
  }
  initializer {
      dims: 256
      data_type: 1
      name: "backbone2.4.convs.1.bias"
  }
  initializer {
      dims: 256
      dims: 256
      dims: 1
      dims: 1
      data_type: 1
      name: "backbone2.4.convs.1.weight"
  }
  initializer {
      dims: 256
      data_type: 1
      name: "backbone2.5.convs.0.bias"
  }
  initializer {
      dims: 256
      dims: 1
      dims: 3
      dims: 3
      data_type: 1
      name: "backbone2.5.convs.0.weight"
  }
  initializer {
      dims: 256
      data_type: 1
      name: "backbone2.5.convs.1.bias"
  }
  initializer {
      dims: 256
      dims: 256
      dims: 1
      dims: 1
      data_type: 1
      name: "backbone2.5.convs.1.weight"
  }
  initializer {
      dims: 256
      data_type: 1
      name: "backbone2.6.convs.0.bias"
  }
  initializer {
      dims: 256
      dims: 1
      dims: 3
      dims: 3
      data_type: 1
      name: "backbone2.6.convs.0.weight"
  }
  initializer {
      dims: 256
      data_type: 1
      name: "backbone2.6.convs.1.bias"
  }
  initializer {
      dims: 256
      dims: 256
      dims: 1
      dims: 1
      data_type: 1
      name: "backbone2.6.convs.1.weight"
  }
  initializer {
      dims: 256
      data_type: 1
      name: "backbone2.7.convs.0.bias"
  }
  initializer {
      dims: 256
      dims: 1
      dims: 3
      dims: 3
      data_type: 1
      name: "backbone2.7.convs.0.weight"
  }
  initializer {
      dims: 256
      data_type: 1
      name: "backbone2.7.convs.1.bias"
  }
  initializer {
      dims: 256
      dims: 256
      dims: 1
      dims: 1
      data_type: 1
      name: "backbone2.7.convs.1.weight"
  }
  initializer {
      dims: 256
      data_type: 1
      name: "backbone3.0.convs.0.bias"
  }
  initializer {
      dims: 256
      dims: 1
      dims: 3
      dims: 3
      data_type: 1
      name: "backbone3.0.convs.0.weight"
  }
  initializer {
      dims: 256
      data_type: 1
      name: "backbone3.0.convs.1.bias"
  }
  initializer {
      dims: 256
      dims: 256
      dims: 1
      dims: 1
      data_type: 1
      name: "backbone3.0.convs.1.weight"
  }
  initializer {
      dims: 256
      data_type: 1
      name: "backbone3.1.convs.0.bias"
  }
  initializer {
      dims: 256
      dims: 1
      dims: 3
      dims: 3
      data_type: 1
      name: "backbone3.1.convs.0.weight"
  }
  initializer {
      dims: 256
      data_type: 1
      name: "backbone3.1.convs.1.bias"
  }
  initializer {
      dims: 256
      dims: 256
      dims: 1
      dims: 1
      data_type: 1
      name: "backbone3.1.convs.1.weight"
  }
  initializer {
      dims: 256
      data_type: 1
      name: "backbone3.2.convs.0.bias"
  }
  initializer {
      dims: 256
      dims: 1
      dims: 3
      dims: 3
      data_type: 1
      name: "backbone3.2.convs.0.weight"
  }
  initializer {
      dims: 256
      data_type: 1
      name: "backbone3.2.convs.1.bias"
  }
  initializer {
      dims: 256
      dims: 256
      dims: 1
      dims: 1
      data_type: 1
      name: "backbone3.2.convs.1.weight"
  }
  initializer {
      dims: 256
      data_type: 1
      name: "backbone3.3.convs.0.bias"
  }
  initializer {
      dims: 256
      dims: 1
      dims: 3
      dims: 3
      data_type: 1
      name: "backbone3.3.convs.0.weight"
  }
  initializer {
      dims: 256
      data_type: 1
      name: "backbone3.3.convs.1.bias"
  }
  initializer {
      dims: 256
      dims: 256
      dims: 1
      dims: 1
      data_type: 1
      name: "backbone3.3.convs.1.weight"
  }
  initializer {
      dims: 256
      data_type: 1
      name: "backbone3.4.convs.0.bias"
  }
  initializer {
      dims: 256
      dims: 1
      dims: 3
      dims: 3
      data_type: 1
      name: "backbone3.4.convs.0.weight"
  }
  initializer {
      dims: 256
      data_type: 1
      name: "backbone3.4.convs.1.bias"
  }
  initializer {
      dims: 256
      dims: 256
      dims: 1
      dims: 1
      data_type: 1
      name: "backbone3.4.convs.1.weight"
  }
  initializer {
      dims: 256
      data_type: 1
      name: "backbone3.5.convs.0.bias"
  }
  initializer {
      dims: 256
      dims: 1
      dims: 3
      dims: 3
      data_type: 1
      name: "backbone3.5.convs.0.weight"
  }
  initializer {
      dims: 256
      data_type: 1
      name: "backbone3.5.convs.1.bias"
  }
  initializer {
      dims: 256
      dims: 256
      dims: 1
      dims: 1
      data_type: 1
      name: "backbone3.5.convs.1.weight"
  }
  initializer {
      dims: 256
      data_type: 1
      name: "backbone3.6.convs.0.bias"
  }
  initializer {
      dims: 256
      dims: 1
      dims: 3
      dims: 3
      data_type: 1
      name: "backbone3.6.convs.0.weight"
  }
  initializer {
      dims: 256
      data_type: 1
      name: "backbone3.6.convs.1.bias"
  }
  initializer {
      dims: 256
      dims: 256
      dims: 1
      dims: 1
      data_type: 1
      name: "backbone3.6.convs.1.weight"
  }
  initializer {
      dims: 256
      data_type: 1
      name: "backbone3.7.convs.0.bias"
  }
  initializer {
      dims: 256
      dims: 1
      dims: 3
      dims: 3
      data_type: 1
      name: "backbone3.7.convs.0.weight"
  }
  initializer {
      dims: 256
      data_type: 1
      name: "backbone3.7.convs.1.bias"
  }
  initializer {
      dims: 256
      dims: 256
      dims: 1
      dims: 1
      data_type: 1
      name: "backbone3.7.convs.1.weight"
  }
  initializer {
      dims: 256
      data_type: 1
      name: "blaze1.convs.0.bias"
  }
  initializer {
      dims: 256
      dims: 1
      dims: 3
      dims: 3
      data_type: 1
      name: "blaze1.convs.0.weight"
  }
  initializer {
      dims: 256
      data_type: 1
      name: "blaze1.convs.1.bias"
  }
  initializer {
      dims: 256
      dims: 256
      dims: 1
      dims: 1
      data_type: 1
      name: "blaze1.convs.1.weight"
  }
  initializer {
      dims: 128
      data_type: 1
      name: "blaze2.convs.0.bias"
  }
  initializer {
      dims: 128
      dims: 1
      dims: 3
      dims: 3
      data_type: 1
      name: "blaze2.convs.0.weight"
  }
  initializer {
      dims: 128
      data_type: 1
      name: "blaze2.convs.1.bias"
  }
  initializer {
      dims: 128
      dims: 128
      dims: 1
      dims: 1
      data_type: 1
      name: "blaze2.convs.1.weight"
  }
  initializer {
      dims: 2
      data_type: 1
      name: "classifier_16.bias"
  }
  initializer {
      dims: 2
      dims: 256
      dims: 1
      dims: 1
      data_type: 1
      name: "classifier_16.weight"
  }
  initializer {
      dims: 2
      data_type: 1
      name: "classifier_32.bias"
  }
  initializer {
      dims: 2
      dims: 128
      dims: 1
      dims: 1
      data_type: 1
      name: "classifier_32.weight"
  }
  initializer {
      dims: 6
      data_type: 1
      name: "classifier_8.bias"
  }
  initializer {
      dims: 6
      dims: 256
      dims: 1
      dims: 1
      data_type: 1
      name: "classifier_8.weight"
  }
  initializer {
      dims: 256
      data_type: 1
      name: "conv_transpose1.bias"
  }
  initializer {
      dims: 256
      dims: 256
      dims: 2
      dims: 2
      data_type: 1
      name: "conv_transpose1.weight"
  }
  initializer {
      dims: 128
      data_type: 1
      name: "conv_transpose2.bias"
  }
  initializer {
      dims: 256
      dims: 128
      dims: 2
      dims: 2
      data_type: 1
      name: "conv_transpose2.weight"
  }
  initializer {
      dims: 36
      data_type: 1
      name: "regressor_16.bias"
  }
  initializer {
      dims: 36
      dims: 256
      dims: 1
      dims: 1
      data_type: 1
      name: "regressor_16.weight"
  }
  initializer {
      dims: 36
      data_type: 1
      name: "regressor_32.bias"
  }
  initializer {
      dims: 36
      dims: 128
      dims: 1
      dims: 1
      data_type: 1
      name: "regressor_32.weight"
  }
  initializer {
      dims: 108
      data_type: 1
      name: "regressor_8.bias"
  }
  initializer {
      dims: 108
      dims: 256
      dims: 1
      dims: 1
      data_type: 1
      name: "regressor_8.weight"
  }
  input {
    name: "input"
    type {
      tensor_type {
        elem_type: 1
        shape {
          dim {
            dim_value: 1
          }
          dim {
            dim_value: 3
          }
          dim {
            dim_value: 256
          }
          dim {
            dim_value: 256
          }
        }
      }
    }
  }
  output {
    name: "regressors"
    type {
      tensor_type {
        elem_type: 1
        shape {
          dim {
            dim_value: 1
          }
          dim {
            dim_value: 2944
          }
          dim {
            dim_value: 18
          }
        }
      }
    }
  }
  output {
    name: "classificators"
    type {
      tensor_type {
        elem_type: 1
        shape {
          dim {
            dim_value: 1
          }
          dim {
            dim_value: 2944
          }
          dim {
            dim_value: 1
          }
        }
      }
    }
  }
}
opset_import {
  version: 11
}
